NequIP/forcefield/nequ-ff/best_model.pth (torch, 39394 bytes, 21 tensors)

type_embedding.weight f4 [3, 4]
0.84365994 -0.48642775 -0.6062095 0.65314484 -0.697092 -0.1414443 -0.4349588 -0.44341585
-0.27065668 -0.8344887 0.8635301 0.697419
00000000: 19fa 573f 0f0d f9be 8c30 1bbf 8034 273f
00000010: 9f74 32bf c6d6 10be ebb2 debe 6707 e3be
00000020: 8393 8abe 0da1 55bf 4f10 5d3f 0d8a 323f

conv1.weight_mlp.0.weight f4 [10, 18]
-0.2556652 0.14079754 0.24969731 0.0062683905 0.048937142 0.037562482 0.22240517 0.26999512
0.8103976 0.26622614 -1.2378513 -0.5895816 0.3430421 0.21718502 0.09109758 0.66024333
1.041399 0.4887339 -0.05256105 -0.2969615 0.016446352 -0.008110919 0.023573572 -0.14000994
0.1042608 0.15265496 -0.776182 0.070001215 0.32487595 -0.4577542 0.06828664 0.3073923
0.4297929 -1.086204 -0.8196373 -0.5507765 0.047795217 -0.21153566 0.22842209 0.26036808
-0.22017007 -0.057004653 -0.0959096 -0.009844066 -1.3729845 0.49763003 0.24744846 -0.0029880472
-0.23828661 -0.6110052 -0.66457194 0.15343325 0.5179428 0.5849844 -0.35260582 0.19699813
0.2651098 0.050052032 -0.15441294 -0.15136452 0.25676587 -0.1031617 1.0146931 1.0327703
-0.083546735 -1.2952405 -0.1133455 0.65748924 0.3101845 0.1980792 0.031645726 0.11778472
-0.42268363 -0.012267557 0.37241575 -0.259701 0.11189287 0.45631805 -0.016042199 -0.1103086
-0.16512094 0.19445099 0.16099451 0.032380782 -0.50560325 -0.47928593 -0.048567865 0.97702426
0.8192079 0.7779149 -0.16753773 0.13379356 -0.012985996 -0.014110639 -0.2520968 0.16135243
0.010754957 -0.18304825 -0.67485577 0.28707728 1.4482775 0.30119205 0.5460787 -0.15961652
-1.0791752 -0.62169343 0.3483039 0.7420662 -0.021163477 0.29409805 0.33417127 -0.043056298
0.084903434 0.06953421 0.025805617 -0.109424606 0.75454724 1.2330993 0.2927471 -1.1064582
-0.20756388 0.6890242 -0.13051005 -1.1335456 0.17692979 0.59182966 0.07721003 -0.17492911
-0.026070448 0.4783541 0.30103853 0.096283495 -0.21042451 0.041858137 0.24581705 0.034366213
0.68041354 -0.30240166 -0.9129253 0.014100035 0.6991436 0.32906586 -0.24266696 -0.4184417
-0.42405653 0.0929083 0.48552108 -0.36228094 0.09157718 0.05226468 -0.12202145 -0.13381298
-0.009886551 0.29745284 -0.19801284 -0.033697974 -0.37187207 -0.13451451 0.66922766 0.662256
0.6527151 -0.03073467 0.014779869 0.3268928 0.052948922 -0.27773947 -0.04348779 -0.13995549
-0.027817115 -0.06883893 -0.13599722 0.55449104 -0.19014277 -0.7696591 0.5055643 0.19619164
0.07814119 0.5997871 0.059858456 -0.48158804
00000000: 8de6 82be 3b2d 103e a7b0 7f3e 1267 cd3b
00000010: 5072 483d 1edb 193d 2ebe 633e cd3c 8a3e
00000020: 3876 4f3f cb4e 883e e971 9ebf d2ee 16bf
00000030: 37a3 af3e c065 5e3e 5e91 ba3d b505 293f
00000040: 904c 853f 543b fa3e 414a 57bd 560b 98be
00000050: 80ba 863c a9e3 04bc 5d1d c13c c45e 0fbe
00000060: b086 d53d 9551 1c3e ddb3 46bf cc5c 8f3d
00000070: 2456 a63e c25e eabe ded9 8b3d 8662 9d3e
00000080: d10d dc3e bc08 8bbf c0d3 51bf b0ff 0cbf
00000090: ebc4 433d ce9c 58be 7be7 693e f74e 853e
000000a0: 4374 61be b67d 69bd 416c c4bd 0149 21bc
000000b0: f5bd afbf 5dc9 fe3e 2163 7d3e 1dd3 43bb
000000c0: 6801 74be d66a 1cbf 6321 2abf 9b1d 1d3e
000000d0: e697 043f 8ac1 153f c088 b4be e1b9 493e
000000e0: 79bc 873e 5c03 4d3d 6d1e 1ebe 4dff 1abe
000000f0: d176 833e 7146 d3bd 77e1 813f d131 843f
00000100: 8d1a abbd 71ca a5bf af21 e8bd 3751 283f
00000110: 81d0 9e3e 46d5 4a3e f39e 013d 1e39 f13d
00000120: fd69 d8be ddfd 48bc 47ad be3e 88f7 84be
00000130: 1728 e53d 85a2 e93e ee6a 83bc 7ae9 e1bd
00000140: 7715 29be 291e 473e bfdb 243e b6a1 043d
00000150: 376f 01bf f764 f5be 19ef 46bd 431e 7a3f
00000160: 9cb7 513f 6e25 473f 038f 2bbe 2e01 093e
00000170: 37c3 54bc 4f30 67bc d512 81be 9239 253e
00000180: 8f35 303c 0071 3bbe 59c3 2cbf cbfb 923e
00000190: 2861 b93f d835 9a3e d0cb 0b3f 8372 23be
000001a0: 6a22 8abf 4d27 1fbf e454 b23e 0df8 3d3f
000001b0: 075f adbc 0594 963e 7f18 ab3e cd5b 30bd
000001c0: dae1 ad3d f467 8e3d 4d66 d33c 021a e0bd
000001d0: 022a 413f 33d6 9d3f f3e2 953e 6ca0 8dbf
000001e0: a08b 54be e463 303f 6da4 05be 0618 91bf
000001f0: 152d 353e 2682 173f 4b20 9e3d 9e20 33be
00000200: b191 d5bc d4ea f43e b921 9a3e 4830 c53d
00000210: 8679 57be 7073 2b3d 77b7 7b3e 96c3 0c3d
00000220: 952f 2e3f 64d4 9abe 79b5 69bf d503 673c
00000230: 13fb 323f 527b a83e b07d 78be fe3d d6be
00000240: f01d d9be b546 be3d 3896 f83e e37c b9be
00000250: d18c bb3d 7d13 563d 62e6 f9bd 4506 09be
00000260: 33fb 21bc bd4b 983e e1c3 4abe e306 0abd
00000270: 0466 bebe 2cbe 09be 8152 2b3f 9c89 293f
00000280: 5618 273f 46c7 fbbc 4327 723c 7e5e a73e
00000290: f8e0 583d de33 8ebe 4120 32bd 7e50 0fbe
000002a0: b8e0 e3bc 6dfb 8cbd db42 0bbe 20f3 0d3f
000002b0: c9b4 42be 6108 45bf a96c 013f 76e6 483e
000002c0: 7d08 a03d a68b 193f 242e 753d b592 f6be

conv1.weight_mlp.0.bias f4 [10]
-0.39140376 -0.06268377 -0.06255433 -0.1448943 -0.1412087 -0.010521792 -0.20774129 -0.38360548
-0.39146945 0.13579024
00000000: 1366 c8be 5960 80bd 7c1c 80bd 2c5f 14be
00000010: 0399 10be 9863 2cbc 22ba 54be f067 c4be
00000020: af6e c8be 990c 0b3e

conv1.weight_mlp.2.weight f4 [64, 10]
-0.5663743 0.18240619 -0.18712194 0.14717528 0.14919509 -0.2137305 -0.045018323 0.11725252
0.36492875 0.07789214 -0.27102694 -0.12186357 -0.01138513 0.05388658 0.20222092 0.39736828
-0.19020513 -0.31648242 -0.11269665 -0.1265064 -0.39313626 -0.17787637 0.38766035 0.14539261
-0.2003094 -0.01682532 0.118649095 0.15334061 -0.05683831 0.39796174 0.006228922 0.3053465
0.21354537 0.26893908 0.3399672 -0.12847473 -0.0633891 0.051690325 0.06544754 -0.17764406
0.15615636 -0.32212433 -0.09049968 -0.19580685 0.032153323 0.46285954 0.07093606 0.56754965
0.01480432 -0.5507207 -0.13491423 -0.2758047 -0.010849594 0.44092235 0.7422954 -0.17639023
0.3667712 0.17947777 -0.11015103 -0.29021215 0.15628842 -0.05811983 -0.21902184 -0.067323126
-0.6915064 0.20764847 -0.4414883 0.01360832 -0.11612016 -0.36813927 -0.15445091 -0.10300009
0.16745293 -0.3104167 0.76119506 0.86101174 0.1283936 -0.04865643 -0.0018564545 -0.12510651
0.30856904 0.08843365 0.20609643 -0.13327073 0.22540109 0.19944048 -0.22399506 0.06633441
0.29346135 -0.16984649 -0.13058336 -0.096903816 -0.07577309 0.26299128 -0.268309 -0.19362646
0.2938229 -0.16887017 0.013832944 0.1869136 -0.02915919 -0.23704654 -0.07969353 0.14232999
0.16875711 0.0022955008 -0.14085734 0.31514338 0.03451492 0.02904003 -0.03522849 0.09803504
-0.12184208 0.04576922 0.24998055 0.12856987 -0.18489498 0.028147094 -0.1380086 -0.091028094
-0.25455746 0.6465911 -0.5159266 -0.10348597 0.50843406 -0.6933283 -0.23448668 0.35836247
0.42827424 -0.26991284 -0.017716212 0.25499985 0.051639136 -0.12343836 -0.23598741 -0.022958511
-0.39669535 0.06253422 -0.20744105 0.13345058 0.29993874 0.18787219 0.09718903 0.11505189
-0.122908734 0.028168479 -0.23166414 0.17422576 -0.33443144 -0.008821797 0.1522372 0.48368913
-0.35567972 0.29549864 0.07054506 -0.59504986 -0.47511193 0.22432147 0.47153965 -0.24425858
-1.2732106 -0.3299804 0.80948544 -0.4784933 -0.35614312 0.28190854 0.47581387 -0.21727338
-0.97771513 -0.450619 0.17128432 0.20465809 0.19055271 -0.069956 -0.52448684 0.008340207
-0.43587318 0.2476687 -0.10752096 -0.48680645 -0.36323017 -0.09839366 0.4124336 0.52412915
0.26773736 0.30521518 0.123501524 0.0792042 0.05054657 0.29273582 -0.029761434 0.13256104
0.327163 0.11352758 0.31896937 0.038659394 -0.12721366 0.47784457 0.20319143 -0.053843047
-0.09466562 0.22056592 -0.10700168 -0.049859338 -0.12591621 0.14726532 -0.14621311 -0.031145837
-0.06998026 -0.22589333 0.2628374 -0.053770997 -0.0045756213 0.06338927 -0.2562792 0.12896049
-0.058769394 -0.1818547 0.20913015 0.075698115 -0.019018847 -0.10442982 0.05548245 0.02200681
0.29552865 0.048292223 -0.2052249 0.06603143 -0.19906637 0.31428042 -0.12142888 -0.29305437
-0.051745445 -0.25817922 -0.1761596 0.16206864 0.23386492 0.10357126 -0.08552244 0.02240885
-0.542089 -0.75969636 0.6047363 -0.060558487 -0.096450225 0.036426663 0.29977903 0.09715165
-0.09654519 -0.038297597 -0.43210566 -0.28895056 0.07527272 -0.021898946 0.13152094 0.25060293
00000000: e8fd 10bf b0c8 3a3e e59c 3fbe 1eb5 163e
00000010: 99c6 183e 2bdc 5abe 2265 38bd 1722 f03d
00000020: f1d7 ba3e ea85 9f3d 0bc4 8abe 9b93 f9bd
00000030: b288 3abc 2db8 5c3d 0013 4f3e db73 cb3e
00000040: 22c5 42be fc09 a2be 80cd e6bd e58a 01be
00000050: 2849 c9be 3925 36be 6b7b c63e cde1 143e
00000060: e81d 4dbe 41d5 89bc 4cfe f23d 5205 1d3e
00000070: 4acf 68bd a4c1 cb3e fc1b cc3b 6056 9c3e
00000080: a3ab 5a3e 62b2 893e 2e10 ae3e e18e 03be
00000090: 25d2 81bd 3cb9 533d 5c09 863d 53e8 35be
000000a0: 74e7 1f3e 7bed a4be e557 b9bd 9781 48be
000000b0: 34b3 033d edfb ec3e ed46 913d ef4a 113f
000000c0: d28d 723c 08fc 0cbf f526 0abe 4636 8dbe
000000d0: 7fc2 31bc 93c0 e13e 1207 3e3f a49f 34be
000000e0: 6fc9 bb3e 05c9 373e dd96 e1bd b096 94be
000000f0: 120a 203e 0f0f 6ebd 4347 60be b5e0 89bd
00000100: 9006 31bf cda1 543e c10a e2be 6ef5 5e3c
00000110: 68d0 edbd c07c bcbe 6128 1ebe b6f1 d2bd
00000120: c878 2b3e f0ee 9ebe aedd 423f 446b 5c3f
00000130: 9d79 033e f74b 47bd 4754 f3ba ec1b 00be
00000140: c3fc 9d3e b41c b53d f10a 533e 1f78 08be
00000150: 8bcf 663e 203a 4c3e f65e 65be 56da 873d
00000160: 9140 963e 3dec 2dbe a5b7 05be 8275 c6bd
00000170: ec2e 9bbd cba6 863e cc5f 89be 0446 46be
00000180: f56f 963e 4dec 2cbe 93a3 623c 4766 3f3e
00000190: 41df eebc 54bc 72be 5d36 a3bd f4be 113e
000001a0: aace 2c3e 1d70 163b e83c 10be 795a a13e
000001b0: 845f 0d3d 5be5 ed3c c04b 10bd 98c6 c83d
000001c0: 5788 f9bd 8178 3b3d e7fa 7f3e d2a7 033e
000001d0: 1c55 3dbe bc94 e63c 2052 0dbe f06c babd
000001e0: 5b55 82be ff86 253f c413 04bf 74f0 d3bd
000001f0: bc28 023f f77d 31bf 471d 70be 497b b73e
00000200: c346 db3e 0432 8abe 9721 91bc 578f 823e
00000210: 8f83 533d 40cd fcbd afa6 71be 7d13 bcbc
00000220: a71b cbbe f111 803d 6d6b 54be 45a7 083e
00000230: 9291 993e 9161 403e 0b0b c73d 53a0 eb3d
00000240: 93b7 fbbd 95c1 e63c 5d39 6dbe 3d68 323e
00000250: 993a abbe 4c89 10bc 12e4 1b3e 1aa6 f73e
00000260: a71b b6be 994b 973e ee79 903d 3055 18bf
00000270: df41 f3be 87b4 653e a56d f13e ec1e 7abe
00000280: 91f8 a2bf 31f3 a8be 703a 4f3f 13fd f4be
00000290: 6458 b6be 5156 903e e09d f33e ea7c 5ebe
000002a0: 8a4b 7abf 89b7 e6be 2865 2f3e e491 513e
000002b0: 4020 433e 1745 8fbd c544 06bf 5da5 083c
000002c0: c52a dfbe dd9c 7d3e f333 dcbd b23e f9be
000002d0: 4ef9 b9be 9d82 c9bd 7f2a d33e 542d 063f
000002e0: df14 893e 2a45 9c3e 5eee fc3d d035 a23d
000002f0: ec09 4f3d 78e1 953e 40ce f3bc 15be 073e
00000300: e981 a73e 2681 e83d f44f a33e 5059 1e3d
00000310: 4c44 02be 0ba8 f43e 6a11 503e 878a 5cbd
00000320: 0ce0 c1bd 08dc 613e b223 dbbd 4e39 4cbd
00000330: 2ef0 00be b8cc 163e e4b8 15be 8e25 ffbc
00000340: d051 8fbd 9550 67be a092 863e fa3e 5cbd
00000350: 18ef 95bb 3cd2 813d 0737 83be 380e 043e
00000360: 2db8 70bd 1e38 3abe 3726 563e 9d07 9b3d
00000370: 6acd 9bbc 4ddf d5bd 9141 633d a047 b43c
00000380: 884f 973e 11ce 453d 7a26 52be 7d3b 873d
00000390: 0ed8 4bbe 5de9 a03e b4af f8bd 390b 96be
000003a0: 08f3 53bd 1130 84be 2f63 34be 52f5 253e
000003b0: 497a 6f3e 2b1d d43d 6426 afbd c492 b73c
000003c0: 58c6 0abf 767b 42bf 00d0 1a3f 2d0c 78bd
000003d0: b287 c5bd 2034 153d a37c 993e 72f7 c63d
000003e0: 7cb9 c5bd f1dd 1cbd f43c ddbe 54f1 93be
000003f0: 9528 9a3d 6b65 b3bc 6dad 063e 074f 803e

conv1.weight_mlp.2.bias f4 [64]
0.04194721 0.096461825 -0.00037295336 -0.36429375 0.027905883 0.34687904 -0.19895515 0.10828034
0.09146662 -0.09729824 0.045836736 -0.06309712 -0.2205618 0.026642354 -0.07896014 -0.10861775
-0.42536035 0.030015469 -0.2970657 0.043713763 -0.06947218 0.26212892 -0.107172556 0.0097017735
0.060148526 0.21201266 0.12850769 -0.447496 -0.17495278 -0.06633537 -0.4206109 0.06066649
0.10938663 -0.16113652 -0.29254326 -0.14117457 0.09042922 -0.035401497 -0.18789764 -0.3403671
0.13083978 0.07498834 -0.3168189 -0.21797095 -0.25514135 0.056939077 0.18284327 0.14549927
-0.053105 0.27432543 -0.2548097 -0.019176243 0.07472937 -0.059750758 -0.23266096 0.22025213
-0.24258134 0.1732212 -0.42783138 0.17532928 -0.12083928 -0.085649446 0.06885182 -0.12124369
00000000: d6d0 2b3d c78d c53d f488 c3b9 b684 babe
00000010: e19a e43c 219a b13e e6ba 4bbe 15c2 dd3d
00000020: da52 bb3d 4d44 c7bd 4dbf 3b3d 1039 81bd
00000030: f4da 61be 1141 da3c dbb5 a1bd fc72 debd
00000040: d5c8 d9be 00e3 f53c ff18 98be 340d 333d
00000050: 6e47 8ebd c335 863e 497d dbbd 30f4 1e3c
00000060: 4d5e 763d d919 593e 8597 033e 321e e5be
00000070: d226 33be d7da 87bd 505a d7be 6d7d 783d
00000080: 1906 e03d f900 25be 3bc8 95be 1190 10be
00000090: f432 b93d 2901 11bd 3d68 40be 9944 aebe
000000a0: ddfa 053e 7d93 993d 1636 a2be c733 5fbe
000000b0: e3a1 82be f338 693d 443b 3b3e c3fd 143e
000000c0: a184 59bd 6274 8c3e 6b76 82be 7f17 9dbc
000000d0: b60b 993d 36bd 74bd ad3e 6ebe c689 613e
000000e0: 3e67 78be e660 313e b70c dbbe 8589 333e
000000f0: 967a f7bd fa68 afbd 2f02 8d3d 9d4e f8bd

conv1.tp.output_mask f4 [92]
0.0 0.0 0.0 0.0 0.0 0.0 0.0 0.0
0.0 0.0 0.0 0.0 0.0 0.0 0.0 0.0
1.0 1.0 1.0 1.0 1.0 1.0 1.0 1.0
1.0 1.0 1.0 1.0 1.0 1.0 1.0 1.0
1.0 1.0 1.0 1.0 1.0 1.0 1.0 1.0
0.0 0.0 0.0 0.0 0.0 0.0 0.0 0.0
0.0 0.0 0.0 0.0 0.0 0.0 0.0 0.0
0.0 0.0 0.0 0.0 0.0 0.0 0.0 0.0
0.0 0.0 0.0 0.0 0.0 0.0 0.0 0.0
0.0 0.0 0.0 0.0 0.0 0.0 0.0 0.0
0.0 0.0 0.0 0.0 0.0 0.0 0.0 0.0
0.0 0.0 0.0 0.0
00000000: 0000 0000 0000 0000 0000 0000 0000 0000
00000010: 0000 0000 0000 0000 0000 0000 0000 0000
00000020: 0000 0000 0000 0000 0000 0000 0000 0000
00000030: 0000 0000 0000 0000 0000 0000 0000 0000
00000040: 0000 803f 0000 803f 0000 803f 0000 803f
00000050: 0000 803f 0000 803f 0000 803f 0000 803f
00000060: 0000 803f 0000 803f 0000 803f 0000 803f
00000070: 0000 803f 0000 803f 0000 803f 0000 803f
00000080: 0000 803f 0000 803f 0000 803f 0000 803f
00000090: 0000 803f 0000 803f 0000 803f 0000 803f
000000a0: 0000 0000 0000 0000 0000 0000 0000 0000
000000b0: 0000 0000 0000 0000 0000 0000 0000 0000
000000c0: 0000 0000 0000 0000 0000 0000 0000 0000
000000d0: 0000 0000 0000 0000 0000 0000 0000 0000
000000e0: 0000 0000 0000 0000 0000 0000 0000 0000
000000f0: 0000 0000 0000 0000 0000 0000 0000 0000
00000100: 0000 0000 0000 0000 0000 0000 0000 0000
00000110: 0000 0000 0000 0000 0000 0000 0000 0000
00000120: 0000 0000 0000 0000 0000 0000 0000 0000
00000130: 0000 0000 0000 0000 0000 0000 0000 0000
00000140: 0000 0000 0000 0000 0000 0000 0000 0000
00000150: 0000 0000 0000 0000 0000 0000 0000 0000
00000160: 0000 0000 0000 0000 0000 0000 0000 0000

gate1.mul.output_mask f4 [64]
1.0 1.0 1.0 1.0 1.0 1.0 1.0 1.0
1.0 1.0 1.0 1.0 1.0 1.0 1.0 1.0
1.0 1.0 1.0 1.0 1.0 1.0 1.0 1.0
1.0 1.0 1.0 1.0 1.0 1.0 1.0 1.0
1.0 1.0 1.0 1.0 1.0 1.0 1.0 1.0
1.0 1.0 1.0 1.0 1.0 1.0 1.0 1.0
1.0 1.0 1.0 1.0 1.0 1.0 1.0 1.0
1.0 1.0 1.0 1.0 1.0 1.0 1.0 1.0
00000000: 0000 803f 0000 803f 0000 803f 0000 803f
00000010: 0000 803f 0000 803f 0000 803f 0000 803f
00000020: 0000 803f 0000 803f 0000 803f 0000 803f
00000030: 0000 803f 0000 803f 0000 803f 0000 803f
00000040: 0000 803f 0000 803f 0000 803f 0000 803f
00000050: 0000 803f 0000 803f 0000 803f 0000 803f
00000060: 0000 803f 0000 803f 0000 803f 0000 803f
00000070: 0000 803f 0000 803f 0000 803f 0000 803f
00000080: 0000 803f 0000 803f 0000 803f 0000 803f
00000090: 0000 803f 0000 803f 0000 803f 0000 803f
000000a0: 0000 803f 0000 803f 0000 803f 0000 803f
000000b0: 0000 803f 0000 803f 0000 803f 0000 803f
000000c0: 0000 803f 0000 803f 0000 803f 0000 803f
000000d0: 0000 803f 0000 803f 0000 803f 0000 803f
000000e0: 0000 803f 0000 803f 0000 803f 0000 803f
000000f0: 0000 803f 0000 803f 0000 803f 0000 803f

conv2.weight_mlp.0.weight f4 [10, 18]
-0.044264294 0.13065673 -0.21661346 -0.08349324 -0.087221324 0.20322555 -0.25194252 -0.16557504
0.17474972 -0.047802247 0.16106471 0.07152139 -0.49976134 0.30444413 0.23550026 0.6725587
-0.43668243 -0.44773775 0.18815522 -0.25152224 -0.12259938 0.15821029 0.41496733 -0.21098004
-0.001965554 0.18673842 0.25992513 0.61865914 -0.49219754 -0.40315568 -0.26416814 -0.52650356
0.22474661 0.91209257 -0.0072689084 -0.053684883 -0.20395473 -0.12545997 -0.10427364 -0.39996994
0.16223626 -0.011755269 -0.23355389 -0.05990075 -0.2072515 0.12879762 0.8533181 -0.39376745
-0.40594563 -0.3618604 0.25936943 0.62420875 0.62528515 0.43303466 -0.4467205 0.31290057
0.31203803 -0.1853471 -0.7662478 0.7412418 0.39426854 -0.55833435 -0.25278038 0.10205289
-0.48019093 0.7903053 2.1539516 -0.83815986 -0.42269897 0.5028289 -0.85564107 0.42794886
0.039506413 -0.047435645 -0.32803968 -0.2591461 -0.25436077 0.16988362 -0.21772897 -0.2805381
-0.063471965 0.7323944 -1.196697 -0.6787648 0.6450603 0.40168133 -0.6737094 -0.28083578
0.6961098 0.5734405 0.025856294 0.20878756 0.12521893 -0.05890872 -0.011053876 0.005943501
0.19806376 -0.09447419 1.0226758 -0.27404425 -1.2440958 0.77570856 0.49928048 -0.569988
-0.2821487 0.20842546 1.0028435 -0.47350284 0.31010097 0.3187844 -0.38274083 -0.5320026
-0.1150295 -0.021530569 0.07635268 -0.00879982 0.1617765 -0.62835175 0.3629844 0.10325232
-0.80075544 -0.28515735 0.5750344 0.38912955 -0.40277374 -0.08653574 -0.19490522 -0.12689394
0.09259505 0.07863692 0.28472543 -0.04515356 0.071120575 0.14898364 -0.076123804 0.25380272
0.6601963 -0.599495 -0.7816102 -0.28838682 -0.838692 0.7491273 1.2693958 0.8709153
-0.17884108 0.25972784 0.11473664 0.0910401 0.03374221 -0.043928243 0.31352803 -0.23583415
0.5655767 0.019867398 -0.27893087 -0.18396558 -0.20897537 0.9118124 0.22181855 -0.5575037
-0.34141037 0.21182297 0.17936689 -0.017862445 -0.16277693 0.02722753 0.06909702 -0.15485492
0.03289373 -0.24883541 1.008187 0.4191788 0.31051803 -0.026176458 -0.865311 -0.46869716
-0.37623477 -0.05420919 -0.7691498 0.7120944
00000000: 7a4e 35bd e1ca 053e ebcf 5dbe 81fe aabd
00000010: 18a1 b2bd 5c1a 503e 9cfe 80be 818c 29be
00000020: 97f1 323e 4acc 43bd 26ee 243e ce79 923d
00000030: b8e0 ffbe 1ae0 9b3e fb26 713e cf2c 2c3f
00000040: d794 dfbe e23d e5be c3ab 403e 86c7 80be
00000050: 6215 fbbd e101 223e 9976 d43e 270b 58be
00000060: 86d0 00bb 5b38 3f3e e814 853e 7260 1e3f
00000070: 5101 fcbe 6c6a cebe 0c41 87be f0c8 06bf
00000080: fa23 663e e67e 693f 0630 eebb aee4 5bbd
00000090: 82d9 50be 9478 00be 6b8d d5bd dcc8 ccbe
000000a0: 4321 263e 2c99 40bc c028 6fbe 7d5a 75bd
000000b0: bd39 54be 86e3 033e 0e73 5a3f e39b c9be
000000c0: 1bd8 cfbe c445 b9be 12cc 843e 25cc 1f3f
000000d0: b012 203f b8b6 dd3e 8db8 e4be 8134 a03e
000000e0: 73c3 9f3e a1cb 3dbe d128 44bf 06c2 3d3f
000000f0: 91dd c93e 00ef 0ebf 6e6c 81be 1b01 d13d
00000100: 96db f5be 7351 4a3f 58da 0940 a591 56bf
00000110: 006c d8be 65b9 003f 4b0b 5bbf 1d1c db3e
00000120: 7ad1 213d e14b 42bd d1f4 a7be ccae 84be
00000130: 933b 82be f9f5 2d3e 58f4 5ebe b1a2 8fbe
00000140: 97fd 81bd 337e 3b3f 5e2d 99bf 88c3 2dbf
00000150: ac22 253f 2da9 cd3e 3878 2cbf b5c9 8fbe
00000160: 4034 323f ffcc 123f 94d0 d33c 68cc 553e
00000170: 6439 003e 454a 71bd 511b 35bc b3c1 c23b
00000180: 3ad1 4a3e af7b c1bd 0ae7 823f 874f 8cbe
00000190: 883e 9fbf d694 463f b1a1 ff3e bcea 11bf
000001a0: cb75 90be 7c6d 553e 2d5d 803f f76e f2be
000001b0: 8ec5 9e3e b537 a33e 9bf6 c3be 5331 08bf
000001c0: 9694 ebbd e060 b0bc cb5e 9c3d 1f2d 10bc
000001d0: bda8 253e a9db 20bf 17d9 b93e f475 d33d
000001e0: 4ffe 4cbf 2500 92be 7435 133f fd3b c73e
000001f0: 5c38 cebe a639 b1bd 3c95 47be 7cf0 01be
00000200: 79a2 bd3d 650c a13d 88c7 913e f0f2 38bd
00000210: aaa7 913d 2b8f 183e cce6 9bbd 6ef2 813e
00000220: a002 293f 8178 19bf 9b17 48bf 70a7 93be
00000230: 85b4 56bf cfc6 3f3f 907b a23f 4ef4 5e3f
00000240: 1e22 37be 0cfb 843e 0bfb ea3d 3b73 ba3d
00000250: 4635 0a3d 1aee 33bd bf86 a03e 827e 71be
00000260: a2c9 103f f4c0 a23c 07d0 8ebe 7961 3cbe
00000270: a4fd 55be 8a6c 693f 6724 633e 90b8 0ebf
00000280: 57cd aebe 1fe8 583e f4ab 373e 4354 92bc
00000290: ffae 26be 450c df3c bd82 8d3d 4a92 1ebe
000002a0: 93bb 063d b6ce 7ebe 460c 813f 9b9e d63e
000002b0: 38fc 9e3e 0370 d6bc 0685 5dbf 13f9 efbe
000002c0: d8a1 c0be 750a 5ebd 00e7 44bf d24b 363f

conv2.weight_mlp.0.bias f4 [10]
0.040323738 -0.06648915 -0.11576489 -0.11498897 -0.056155957 -0.07844616 -0.13635862 -0.048348602
0.08767707 -0.10086534
00000000: 812a 253d 772b 88bd 2516 edbd 567f ebbd
00000010: ca03 66bd 61a8 a0bd 98a1 0bbe 2f09 46bd
00000020: 0990 b33d 7d92 cebd

conv2.weight_mlp.2.weight f4 [480, 10]
0.38595706 -0.34349042 0.87454313 0.3837541 0.096766725 -0.9664699 -0.40075862 0.82809985
0.013671391 0.10241027 -0.11317752 -0.23225671 0.14357258 -0.17793114 -0.047126 -1.0263382
0.16237357 -0.07634106 -0.29840514 0.886961 0.21055207 0.017928695 1.3333621 0.2841252
-0.1681244 0.41093534 0.085145466 0.50540435 -0.028594347 -0.2178668 -0.26121643 0.18751866
-0.5657777 -0.30804995 0.58386505 0.4546311 -0.5224628 0.061966296 -0.13205081 -0.563162
-0.24345419 0.41501507 0.5607823 -0.11012521 0.02231395 0.30787823 -0.22052632 -0.18853578
-0.22687136 0.027518505 -0.35281652 0.0312806 0.990962 -0.27449998 1.0350274 -0.110616714
-0.6926169 0.811616 -0.4309672 0.85717463 -0.10191874 -0.357503 -0.036267303 -0.24400038
0.35274825 -0.04923759 -0.62434757 0.48414284 0.62115234 -0.61715 -0.6933791 -0.47707048
0.28761578 -0.31149605 0.36044517 0.17809366 -0.013180647 -0.06180559 0.3145591 -0.33431053
-0.21608914 -0.018625852 0.27575973 0.30811894 -0.27706438 0.13333908 -0.06079121 -0.087945245
-0.092151396 -0.046089645 0.26970112 -0.23545688 -0.16574514 0.053017426 -0.06703362 -0.12617931
-0.0538318 0.13960919 0.2943341 -0.19629532 0.27518368 0.02703084 -0.114309296 0.1523476
-0.13641849 0.19557439 0.08759526 -0.30768892 0.05910139 -0.10501752 -0.17878719 -0.20593078
-0.2700274 0.14551824 0.18549278 0.23543392 -0.2640011 -0.05550326 0.16973265 0.28448352
0.05924049 -0.09951443 -0.5898861 -0.4665283 -1.0742255 0.83647764 -1.0437129 -0.65834856
0.37859643 -0.5320035 -0.3860314 0.5258074 -0.5342604 -0.3605553 -0.5844766 -0.15238245
-0.6369771 0.33167222 -0.3409613 0.23938856 0.34096715 0.37929243 0.033892255 1.0483677
-0.58388865 1.3541163 1.1811327 -0.0466068 -0.2281819 -0.25856164 0.41164914 -0.47412446
0.31271532 -0.18341008 0.2295178 -0.49623582 -0.42672816 0.41569224 -0.24715997 -0.038851842
0.027917532 -0.05126529 -0.235799 -0.023616131 0.15261611 0.07179294 0.20334841 0.2327464
-0.30208284 0.2568643 -0.29252335 -0.6748456 -0.28906882 0.18739958 0.45414415 -0.4635253
0.008913385 -1.1947663 0.27701375 -1.1263288 0.26811105 0.3128629 0.18819292 0.5020909
0.32736155 0.8123798 0.26161787 0.14893198 -0.09794749 0.44788972 0.13315828 0.30296996
1.3357748 0.13099976 1.0429589 -0.028531715 0.60212785 1.5626748 -0.37619457 0.17823814
-0.17152484 -0.21960331 -0.3050302 -0.053438883 -0.27545792 -0.06794235 0.10762666 -0.24287789
-0.027540054 -0.26961827 -0.05657047 -0.10455139 -0.27798745 0.2719753 -0.30926007 0.058920067
0.055301882 0.28508803 -0.12134662 -0.30556265 -0.09794245 0.010179738 0.15242748 0.08672721
-0.14465629 0.31392464 0.07094784 0.24046308 -0.14841302 -0.024857365 0.083651334 -0.24954703
-0.12605031 0.29065534 -0.08931407 -0.024809867 -0.29286066 0.17060639 0.08555365 -0.04650718
0.111728944 0.39509514 -0.27445492 0.29663792 -0.106566474 -0.90429014 0.17672646 0.588972
0.72417253 0.5357892 0.06501355 0.7720573 0.20618457 -0.273131 -0.5698965 0.061067298
00000000: 2a9c c53e fadd afbe 0fe2 5f3f 6b7b c43e
00000010: a22d c63d 926a 77bf 3c30 cdbe 5afe 533f
00000020: f8fd 5f3c 7abc d13d 9ec9 e7bd b4d4 6dbe
00000030: b104 133e 9533 36be 3107 41bd 0d5f 83bf
00000040: 4245 263e b458 9cbd 8fc8 98be e00f 633f
00000050: f69a 573e 33df 923c 9cab aa3f dc78 913e
00000060: cd28 2cbe 1e66 d23e bf60 ae3d 2e62 013f
00000070: b13e eabc 7918 5fbe 29be 85be e404 403e
00000080: cfd6 10bf b9b8 9dbe 2e78 153f 68c5 e83e
00000090: 1fc0 05bf 5fd0 7d3d 5438 07be 632b 10bf
000000a0: 0e4c 79be db7c d43e 6e8f 0f3f 5389 e1bd
000000b0: bfcb b63c 37a2 9d3e a7d1 61be 860f 41be
000000c0: f750 68be 7d6e e13c 5ea4 b4be 1620 003d
000000d0: b0af 7d3f 438b 8cbe c77b 843f 048b e2bd
000000e0: 574f 31bf 11c6 4f3f bca7 dcbe cc6f 5b3f
000000f0: c6ba d0bd a20a b7be 068d 14bd 3cdb 79be
00000100: 6b9b b43e 5bad 49bd 3ed5 1fbf 92e1 f73e
00000110: d703 1f3f 8bfd 1dbf 4b81 31bf 9542 f4be
00000120: 6042 933e 697c 9fbe 458c b83e 2f5e 363e
00000130: a4f3 57bc dc27 7dbd e40d a13e c02a abbe
00000140: 7946 5dbe 3e95 98bc 6130 8d3e c4c1 9d3e
00000150: 62db 8dbe 0a8a 083e 3400 79bd a31c b4bd
00000160: dfb9 bcbd 7fc8 3cbd 4416 8a3e 9c1b 71be
00000170: 18b9 29be cd28 593d ec48 89bd 2635 01be
00000180: bc7e 5cbd b6f5 0e3e f6b2 963e a401 49be
00000190: e0e4 8c3e c86f dd3c fe1a eabd 0201 1c3e
000001a0: 4ab1 0bbe a744 483e 2565 b33d 6789 9dbe
000001b0: 4d14 723d 6d13 d7bd fd13 37be 85df 52be
000001c0: 0841 8abe bc02 153e d2f1 3d3e 9715 713e
000001d0: 272b 87be 6357 63bd 65ce 2d3e d3a7 913e
000001e0: 28a6 723d 39ce cbbd c702 17bf ccdc eebe
000001f0: 3980 89bf 6623 563f 6298 85bf 8889 28bf
00000200: 64d7 c13e 6231 08bf e8a5 c5be 509b 063f
00000210: 4ac5 08bf b49a b8be 42a0 15bf 250a 1cbe
00000220: ee10 23bf f1d0 a93e 7b92 aebe 4622 753e
00000230: 3f93 ae3e 9e32 c23e 9bd2 0a3d ea30 863f
00000240: ba79 15bf af53 ad3f 5b2f 973f c6e6 3ebd
00000250: 84a8 69be 3162 84be adc3 d23e 71c0 f2be
00000260: 391c a03e dacf 3bbe b706 6b3e 9f12 febe
00000270: 1d7c dabe 9dd5 d43e 8117 7dbe 1c23 1fbd
00000280: 4fb3 e43c 8dfb 51bd 4b75 71be 9e76 c1bc
00000290: 6647 1c3e 2d08 933d 913a 503e 1355 6e3e
000002a0: 9aaa 9abe b883 833e 9fc5 95be aec2 2cbf
000002b0: d400 94be ade5 3f3e 9585 e83e 3053 edbe
000002c0: 7209 123c 1aee 98bf bfd4 8d3e 8b2b 90bf
000002d0: da45 893e 912f a03e a5b5 403e 0789 003f
000002e0: ef9b a73e 1ff8 4f3f c7f2 853e a081 183e
000002f0: b298 c8bd cd51 e53e a55a 083e e11e 9b3e
00000300: abfa aa3f cd24 063e ad7f 853f 58bb e9bc
00000310: 0d25 1a3f ba05 c83f 939c c0be 0f84 363e
00000320: 35a4 2fbe b1df 60be eb2c 9cbe bbe2 5abd
00000330: d208 8dbe 5c25 8bbd 5e6b dc3d fbb4 78be
00000340: ae9b e1bc 680b 8abe 70b6 67bd 0a1f d6bd
00000350: 5f54 8ebe 5940 8b3e 5657 9ebe 2b56 713d
00000360: 3a84 623d 0ff7 913e 9484 f8bd b572 9cbe
00000370: 0d96 c8bd eac8 263c f315 1c3e 099e b13d
00000380: c720 14be bbba a03e 1a4d 913d f43b 763e
00000390: 95f9 17be aca1 cbbc 6451 ab3d 4289 7fbe
000003a0: 5513 01be c7d0 943e 4cea b6bd 103e cbbc
000003b0: d5f1 95be 71b3 2e3e c136 af3d 507e 3ebd
000003c0: 25d2 e43d e949 ca3e 5b85 8cbe ede0 973e
000003d0: 863f dabd 8f7f 67bf c8f7 343e dec6 163f
000003e0: 5f63 393f 7b29 093f d325 853d 8ca5 453f
000003f0: 0c22 533e d4d7 8bbe bde4 11bf b421 7a3d

conv2.weight_mlp.2.bias f4 [480]
-0.26498944 -0.73739016 -0.3443929 0.22478417 -0.18572478 -0.30928332 0.28273928 -0.11837926
0.14367002 -0.14353378 0.15917853 -0.20110066 -0.08727052 -0.3094352 0.22351749 -0.029869327
-0.0117690535 -0.18156908 0.17811984 -0.55705637 0.008179633 -0.28747573 -0.19634116 -0.045869794
0.80655694 0.09341339 -0.1656824 -0.28409955 -0.31665426 -0.5334718 -0.07653167 -0.15901041
0.19777614 -0.13040438 -0.20815699 -0.2963946 0.027729297 0.2601588 0.020730246 -0.2071415
-0.086952366 0.2608452 0.10598722 0.4460373 -0.2521557 0.17206305 0.12494415 -0.12814397
-0.30149508 0.0345125 0.34883723 0.017355176 -0.07166725 -0.3081771 0.20740762 0.63555765
-0.33981985 -0.074725725 -0.1789738 0.27918532 0.14954731 -0.16270873 -0.20202026 0.08949776
0.17570736 -0.1637932 -0.035878506 -0.28465703 0.14033411 -0.09668645 -0.07638986 -0.08135568
-0.14081116 0.19185466 0.23530364 0.23185879 -0.06821241 -0.20811425 0.09757249 -0.21426988
0.17937662 -0.1579047 -0.11420352 -0.08389339 0.19762257 0.041664664 0.072481476 -0.14662404
0.14487998 0.063733 -0.04344582 0.26334366 0.13628742 0.126202 -0.02142793 0.21121885
-0.26511034 0.25198722 -0.049963232 -0.10986199 0.048562437 -0.15414006 -0.09855861 0.107345775
-0.16747592 -0.21765727 -0.166231 0.16592106 -0.29774034 0.060968578 -0.2008286 0.3050357
0.08936847 0.19551796 0.11611681 -0.12525481 0.2773829 -0.2741553 0.004451748 -0.25751013
-0.01452058 0.08656315 0.27269724 0.16211289 0.19596207 0.26202437 -0.055039775 -0.12931335
0.17035411 0.14665484 0.22827041 0.05728197 0.10248546 0.0049377037 0.13252775 -0.022829704
-0.16266787 -0.30547276 0.053832594 0.1431666 -0.017316513 -0.24142617 0.05756089 -0.26095742
0.2793824 -0.021682424 -0.2849714 -0.13296176 -0.08948182 -0.07438956 -0.08296449 0.024683958
-0.020377457 0.23799598 0.28890982 0.28510526 0.08198508 -0.019250799 -0.19620888 -0.1612737
-0.06786948 0.1842369 0.09433629 0.18207647 -0.060055736 -0.067027695 -0.18675005 0.008037326
-0.23102914 -0.29902378 -0.17594722 0.16696924 -0.16104364 0.28684542 -0.21615523 0.055488445
-0.28660014 0.08712065 0.18409184 -0.05369926 -0.28520387 -0.06545433 -0.07806392 -0.1969345
-0.1254321 0.00925016 0.21633221 -0.30099094 0.16828488 0.28374362 0.15379007 0.18368971
0.056691036 0.00016058853 -0.12984335 0.14494373 -0.16711205 0.20433478 0.094354846 -0.019664405
-0.07572467 0.064674675 0.16423976 -0.0745782 0.0114828665 -0.008449511 0.602776 0.09913347
0.018660538 0.16119958 -0.12189634 -0.121810965 -0.05864605 0.10543531 0.009691984 -0.0193067
-0.09982853 0.08259992 0.08038434 0.089882284 0.0009336795 0.36003658 -0.059233144 -0.10370649
-0.16068888 0.1362357 0.28628626 -0.23916268 -0.21357583 -0.21209602 0.16836073 -0.10383288
-0.098069124 -0.08543759 0.037193827 -0.016227197 -0.014149695 0.043771297 0.031145277 0.23437592
0.072766244 0.23010367 -0.27118316 0.1575853 -0.18231629 -0.1551586 -0.21117854 0.36439025
-0.18533877 0.08120982 0.10033273 -0.022530066 -0.3130709 -0.19810219 -0.11328178 0.06101943
00000000: b2ac 87be 9ac5 3cbf 4454 b0be d22d 663e
00000010: a32e 3ebe 625a 9ebe 34c3 903e d370 f2bd
00000020: 3c1e 133e 85fa 12be b2ff 223e 55ed 4dbe
00000030: e3ba b2bd 4a6e 9ebe c5e1 643e 85b0 f4bc
00000040: fdd2 40bc 3fed 39be 0c65 363e 3f9b 0ebf
00000050: de03 063c 0530 93be a80d 49be f7e1 3bbd
00000060: 847a 4e3f 854f bf3d a6a8 29be 7f75 91be
00000070: 8220 a2be 9c91 08bf a3bc 9cbd a0d3 22be
00000080: d485 4a3e ba88 05be 1b27 55be 08c1 97be
00000090: 8d28 e33c 8933 853e 7ad2 a93c e71c 54be
000000a0: 1514 b2bd 818d 853e d40f d93d 005f e43e
000000b0: 8d1a 81be 4c31 303e b8e2 ff3d 2c38 03be
000000c0: 905d 9abe fb5c 0d3d cb9a b23e 712c 8e3c
000000d0: 47c6 92bd 64c9 9dbe aa62 543e e8b3 223f
000000e0: defc adbe cd09 99bd e844 37be 61f1 8e3e
000000f0: ee22 193e 1e9d 26be 66de 4ebe 9a4a b73d
00000100: a1ec 333e 68b9 27be 57f5 12bd 91be 91be
00000110: bfb3 0f3e 8c03 c6bd 4972 9cbd cf9d a6bd
00000120: cd30 10be 8c75 443e 70f3 703e 646c 6d3e
00000130: f3b2 8bbd e71b 55be 16d4 c73d 9069 5bbe
00000140: 81ae 373e c5b1 21be 89e3 e9bd 4cd0 abbd
00000150: 925d 4a3e 91a8 2a3d 2b71 943d 9d24 16be
00000160: 6b5b 143e 7286 823d 3ff4 31bd fbd4 863e
00000170: ee8e 0b3e 193b 013e a089 afbc c149 583e
00000180: 8bbc 87be 7804 813e 3fa6 4cbd 53ff e0bd
00000190: 68e9 463d e4d6 1dbe 19d9 c9bd 1ad8 db3d
000001a0: cf7e 2bbe 8ce1 5ebe 7638 2abe 36e7 293e
000001b0: 6c71 98be 30ba 793d 03a6 4dbe a42d 9c3e
000001c0: d106 b73d dc35 483e a6ce ed3d cc42 00be
000001d0: 2205 8e3e 155e 8cbe f8df 913b 5ed8 83be
000001e0: bae7 6dbc 0548 b13d f99e 8b3e ec00 263e
000001f0: 48aa 483e 0f28 863e 6371 61bd b86a 04be
00000200: 4f71 2e3e b02c 163e b8bf 693e 80a0 6a3d
00000210: e6e3 d13d 76cc a13b 5bb5 073e 5c05 bbbc
00000220: 6892 26be ed66 9cbe 917f 5c3d 449a 123e
00000230: 5cdb 8dbc 6c38 77be f8c4 6b3d 369c 85be
00000240: 360b 8f3e 579f b1bc c5e7 91be 2127 08be
00000250: 3f42 b7bd 8e59 98bd 49e9 a9bd 0336 ca3c
00000260: a0ee a6bc 38b5 733e fdeb 933e 51f9 913e
00000270: cbe7 a73d dab3 9dbc fbea 48be ef24 25be
00000280: 27ff 8abd 99a8 3c3e 6333 c13d 4172 3a3e
00000290: 01fd 75bd d145 89bd 683b 3fbe fdae 033c
000002a0: e792 6cbe a519 99be 822b 34be fcf9 2a3e
000002b0: a0e8 24be 67dd 923e cc57 5dbe da47 633d
000002c0: 41bd 92be 506c b23d 9282 3c3e c1f3 5bbd
000002d0: 3e06 92be eb0c 86bd fadf 9fbd 33a9 49be
000002e0: 4671 00be fc8d 173c 3186 5d3e 7c1b 9abe
000002f0: df52 2c3e d846 913e 257b 1d3e 2819 3c3e
00000300: dc34 683d a863 2839 a8f5 04be 216c 143e
00000310: 6c1f 2bbe 233d 513e 1d3d c13d 3f17 a1bc
00000320: 8915 9bbd 2874 843d 782e 283e 75bc 98bd
00000330: a222 3c3c d16f 0abc 874f 1a3f 7d06 cb3d
00000340: fcdd 983c 8111 253e caa4 f9bd 0778 f9bd
00000350: d736 70bd 78ee d73d 21cb 1e3c 1629 9ebc
00000360: e672 ccbd 262a a93d 8ba0 a43d 3414 b83d
00000370: 2cc2 743a b756 b83e 749e 72bd 1164 d4bd
00000380: a08b 24be 5f81 0b3e 1d94 923e 10e7 74be
00000390: 9fb3 5abe b32f 59be c166 2c3e 55a6 d4bd
000003a0: 77d8 c8bd e7f9 aebd 8e58 183d e6ee 84bc
000003b0: 1fd4 67bc 8849 333d 6124 ff3c 3e00 703e
000003c0: 7806 953d 4ca0 6b3e 85d8 8abe 0a5e 213e
000003d0: 1fb1 3abe e5e1 1ebe 303f 58be 5c91 ba3e
000003e0: 72c9 3dbe 5651 a63d 3f7b cd3d f990 b8bc
000003f0: d44a a0be 4ddb 4abe 4700 e8bd 83ef 793d

conv2.tp.output_mask f4 [92]
0.0 0.0 0.0 0.0 0.0 0.0 0.0 0.0
0.0 0.0 0.0 0.0 0.0 0.0 0.0 0.0
1.0 1.0 1.0 1.0 1.0 1.0 1.0 1.0
1.0 1.0 1.0 1.0 1.0 1.0 1.0 1.0
1.0 1.0 1.0 1.0 1.0 1.0 1.0 1.0
1.0 1.0 1.0 1.0 1.0 1.0 1.0 1.0
1.0 1.0 1.0 1.0 1.0 1.0 1.0 1.0
1.0 1.0 1.0 1.0 1.0 1.0 1.0 1.0
1.0 1.0 1.0 1.0 1.0 1.0 1.0 1.0
1.0 1.0 1.0 1.0 1.0 1.0 1.0 1.0
1.0 1.0 1.0 1.0 1.0 1.0 1.0 1.0
1.0 1.0 1.0 1.0
00000000: 0000 0000 0000 0000 0000 0000 0000 0000
00000010: 0000 0000 0000 0000 0000 0000 0000 0000
00000020: 0000 0000 0000 0000 0000 0000 0000 0000
00000030: 0000 0000 0000 0000 0000 0000 0000 0000
00000040: 0000 803f 0000 803f 0000 803f 0000 803f
00000050: 0000 803f 0000 803f 0000 803f 0000 803f
00000060: 0000 803f 0000 803f 0000 803f 0000 803f
00000070: 0000 803f 0000 803f 0000 803f 0000 803f
00000080: 0000 803f 0000 803f 0000 803f 0000 803f
00000090: 0000 803f 0000 803f 0000 803f 0000 803f
000000a0: 0000 803f 0000 803f 0000 803f 0000 803f
000000b0: 0000 803f 0000 803f 0000 803f 0000 803f
000000c0: 0000 803f 0000 803f 0000 803f 0000 803f
000000d0: 0000 803f 0000 803f 0000 803f 0000 803f
000000e0: 0000 803f 0000 803f 0000 803f 0000 803f
000000f0: 0000 803f 0000 803f 0000 803f 0000 803f
00000100: 0000 803f 0000 803f 0000 803f 0000 803f
00000110: 0000 803f 0000 803f 0000 803f 0000 803f
00000120: 0000 803f 0000 803f 0000 803f 0000 803f
00000130: 0000 803f 0000 803f 0000 803f 0000 803f
00000140: 0000 803f 0000 803f 0000 803f 0000 803f
00000150: 0000 803f 0000 803f 0000 803f 0000 803f
00000160: 0000 803f 0000 803f 0000 803f 0000 803f

conv2.tp._compiled_main_left_right._w3j_1_1_1 f4 [3, 3, 3]
0.0 0.0 0.0 0.0 0.0 0.4082483 0.0 -0.4082483
0.0 0.0 0.0 -0.4082483 0.0 0.0 0.0 0.4082483
0.0 0.0 0.0 0.4082483 0.0 -0.4082483 0.0 0.0
0.0 0.0 0.0
00000000: 0000 0000 0000 0000 0000 0000 0000 0000
00000010: 0000 0000 ec05 d13e 0000 0000 ec05 d1be
00000020: 0000 0000 0000 0000 0000 0000 ec05 d1be
00000030: 0000 0000 0000 0000 0000 0000 ec05 d13e
00000040: 0000 0000 0000 0000 0000 0000 ec05 d13e
00000050: 0000 0000 ec05 d1be 0000 0000 0000 0000
00000060: 0000 0000 0000 0000 0000 0000

conv2.tp._compiled_main_left_right._w3j_1_1_2 f4 [3, 3, 5]
0.0 0.0 -0.18257418 0.0 -0.31622776 0.0 0.31622776 0.0
0.0 0.0 0.31622776 0.0 0.0 0.0 0.0 0.0
0.31622776 0.0 0.0 0.0 0.0 0.0 0.36514837 0.0
0.0 0.0 0.0 0.0 0.31622776 0.0 0.31622776 0.0
0.0 0.0 0.0 0.0 0.0 0.0 0.31622776 0.0
0.0 0.0 -0.18257418 0.0 0.31622776
00000000: 0000 0000 0000 0000 baf4 3abe 0000 0000
00000010: 9be8 a1be 0000 0000 9be8 a13e 0000 0000
00000020: 0000 0000 0000 0000 9be8 a13e 0000 0000
00000030: 0000 0000 0000 0000 0000 0000 0000 0000
00000040: 9be8 a13e 0000 0000 0000 0000 0000 0000
00000050: 0000 0000 0000 0000 baf4 ba3e 0000 0000
00000060: 0000 0000 0000 0000 0000 0000 0000 0000
00000070: 9be8 a13e 0000 0000 9be8 a13e 0000 0000
00000080: 0000 0000 0000 0000 0000 0000 0000 0000
00000090: 0000 0000 0000 0000 9be8 a13e 0000 0000
000000a0: 0000 0000 0000 0000 baf4 3abe 0000 0000
000000b0: 9be8 a13e

conv2.tp._compiled_main_left_right._w3j_2_1_1 f4 [5, 3, 3]
0.0 0.0 0.31622776 0.0 0.0 0.0 0.31622776 0.0
0.0 0.0 0.31622776 0.0 0.31622776 0.0 0.0 0.0
0.0 0.0 -0.18257418 0.0 0.0 0.0 0.36514837 0.0
0.0 0.0 -0.18257418 0.0 0.0 0.0 0.0 0.0
0.31622776 0.0 0.31622776 0.0 -0.31622776 0.0 0.0 0.0
0.0 0.0 0.0 0.0 0.31622776
00000000: 0000 0000 0000 0000 9be8 a13e 0000 0000
00000010: 0000 0000 0000 0000 9be8 a13e 0000 0000
00000020: 0000 0000 0000 0000 9be8 a13e 0000 0000
00000030: 9be8 a13e 0000 0000 0000 0000 0000 0000
00000040: 0000 0000 0000 0000 baf4 3abe 0000 0000
00000050: 0000 0000 0000 0000 baf4 ba3e 0000 0000
00000060: 0000 0000 0000 0000 baf4 3abe 0000 0000
00000070: 0000 0000 0000 0000 0000 0000 0000 0000
00000080: 9be8 a13e 0000 0000 9be8 a13e 0000 0000
00000090: 9be8 a1be 0000 0000 0000 0000 0000 0000
000000a0: 0000 0000 0000 0000 0000 0000 0000 0000
000000b0: 9be8 a13e

conv2.tp._compiled_main_left_right._w3j_2_1_2 f4 [5, 3, 5]
0.0 0.18257418 0.0 0.0 0.0 0.0 0.0 0.0
0.0 0.36514837 0.0 0.0 0.0 -0.18257418 0.0 -0.18257418
0.0 0.0 0.0 0.0 0.0 0.0 0.0 0.18257418
0.0 0.0 0.0 -0.31622776 0.0 -0.18257418 0.0 0.0
0.0 -0.31622776 0.0 0.0 0.0 0.0 0.0 0.0
0.0 0.31622776 0.0 0.0 0.0 0.0 0.0 0.31622776
0.0 -0.18257418 0.0 -0.18257418 0.0 0.0 0.0 0.18257418
0.0 0.0 0.0 0.0 0.0 0.0 0.0 0.18257418
0.0 -0.36514837 0.0 0.0 0.0 0.0 0.0 0.18257418
0.0 0.0 0.0
00000000: 0000 0000 baf4 3a3e 0000 0000 0000 0000
00000010: 0000 0000 0000 0000 0000 0000 0000 0000
00000020: 0000 0000 baf4 ba3e 0000 0000 0000 0000
00000030: 0000 0000 baf4 3abe 0000 0000 baf4 3abe
00000040: 0000 0000 0000 0000 0000 0000 0000 0000
00000050: 0000 0000 0000 0000 0000 0000 baf4 3a3e
00000060: 0000 0000 0000 0000 0000 0000 9be8 a1be
00000070: 0000 0000 baf4 3abe 0000 0000 0000 0000
00000080: 0000 0000 9be8 a1be 0000 0000 0000 0000
00000090: 0000 0000 0000 0000 0000 0000 0000 0000
000000a0: 0000 0000 9be8 a13e 0000 0000 0000 0000
000000b0: 0000 0000 0000 0000 0000 0000 9be8 a13e
000000c0: 0000 0000 baf4 3abe 0000 0000 baf4 3abe
000000d0: 0000 0000 0000 0000 0000 0000 baf4 3a3e
000000e0: 0000 0000 0000 0000 0000 0000 0000 0000
000000f0: 0000 0000 0000 0000 0000 0000 baf4 3a3e
00000100: 0000 0000 baf4 babe 0000 0000 0000 0000
00000110: 0000 0000 0000 0000 0000 0000 baf4 3a3e
00000120: 0000 0000 0000 0000 0000 0000

gate2.mul.output_mask f4 [64]
1.0 1.0 1.0 1.0 1.0 1.0 1.0 1.0
1.0 1.0 1.0 1.0 1.0 1.0 1.0 1.0
1.0 1.0 1.0 1.0 1.0 1.0 1.0 1.0
1.0 1.0 1.0 1.0 1.0 1.0 1.0 1.0
1.0 1.0 1.0 1.0 1.0 1.0 1.0 1.0
1.0 1.0 1.0 1.0 1.0 1.0 1.0 1.0
1.0 1.0 1.0 1.0 1.0 1.0 1.0 1.0
1.0 1.0 1.0 1.0 1.0 1.0 1.0 1.0
00000000: 0000 803f 0000 803f 0000 803f 0000 803f
00000010: 0000 803f 0000 803f 0000 803f 0000 803f
00000020: 0000 803f 0000 803f 0000 803f 0000 803f
00000030: 0000 803f 0000 803f 0000 803f 0000 803f
00000040: 0000 803f 0000 803f 0000 803f 0000 803f
00000050: 0000 803f 0000 803f 0000 803f 0000 803f
00000060: 0000 803f 0000 803f 0000 803f 0000 803f
00000070: 0000 803f 0000 803f 0000 803f 0000 803f
00000080: 0000 803f 0000 803f 0000 803f 0000 803f
00000090: 0000 803f 0000 803f 0000 803f 0000 803f
000000a0: 0000 803f 0000 803f 0000 803f 0000 803f
000000b0: 0000 803f 0000 803f 0000 803f 0000 803f
000000c0: 0000 803f 0000 803f 0000 803f 0000 803f
000000d0: 0000 803f 0000 803f 0000 803f 0000 803f
000000e0: 0000 803f 0000 803f 0000 803f 0000 803f
000000f0: 0000 803f 0000 803f 0000 803f 0000 803f

final.weight_mlp.0.weight f4 [10, 18]
-0.6160971 0.45143503 -0.18897054 -0.12550046 0.2563936 0.43330994 -0.25572398 -0.22404453
-0.92326283 0.46591562 -0.36634102 -0.4709674 0.6563111 -0.05710666 -0.49906427 0.50958884
0.10778472 -1.0572084 0.29597196 -0.48406187 0.4862793 0.47709244 -0.07670635 0.27090406
0.20526084 0.047427062 0.6629448 -0.2997075 -1.7457037 0.4180065 1.017216 -0.42301935
-0.5153864 -0.15246883 -0.15407054 0.18203245 -0.31434917 0.05092372 0.17736082 -0.04585822
0.23762922 0.102215536 -0.06579688 0.21199407 0.8250591 1.0334672 0.4573311 -0.8430194
-1.0516022 0.26883098 0.741275 0.65196794 -0.53393334 -0.75091565 0.09999437 0.080133125
0.17972723 -0.023195121 -0.52455974 0.39707103 0.5579405 -0.29472598 2.5609999 1.151468
-0.34217623 -2.0902576 -1.4854739 -0.14418809 0.090241954 0.17961341 -0.10760832 0.1103365
-0.2937108 -0.060987163 0.21571743 -0.40599895 -0.05808268 -0.13062303 -0.07762214 -0.081583634
0.37529638 0.20224684 -0.76742876 -0.15162228 0.654802 0.4054056 -0.5683911 -1.1615075
0.5665152 0.7269217 -0.458776 0.16801864 0.38678506 -0.30688322 -0.14817698 0.56688154
0.033314325 -0.011942456 -0.5017926 0.028677749 -1.1864938 0.21455657 0.99641883 -0.926663
-0.53903544 0.4297589 0.48551747 -0.44175634 -0.030487511 0.51196027 -0.18398805 -0.4241928
-0.13216834 0.0014284932 -0.087457076 0.09663766 0.62816185 -0.21731372 -1.4222453 -0.3157546
0.68387294 0.5151664 -0.3362477 -0.6665933 -0.458803 0.09399263 -0.14496125 0.2511815
0.10037244 -0.43010387 -0.02869348 0.016415795 0.00011671879 -0.14836548 0.14028426 0.007841304
-0.7472766 -1.571558 0.36515126 2.1323147 -0.21056998 -1.0386113 -0.90185946 -0.008315352
-0.046685603 0.7499045 -0.84891766 -0.24077769 -0.4296222 0.06913653 0.12454694 -0.651133
-0.24689019 -0.74664134 -0.39064285 1.3662883 0.60761815 -0.9669231 -0.27769938 1.1120455
0.18326192 0.29267293 0.116608776 0.1620642 -0.04352438 0.19229591 0.17016219 0.7172915
-0.46500137 -0.19634953 0.62754285 -0.303455 -1.4815612 0.55554676 0.41130924 -1.0995797
-0.09778547 0.85340524 0.32961184 -0.29305527
00000000: 8ab8 1dbf 7e22 e73e 7e81 41be 3183 00be
00000010: 0646 833e cdda dd3e 41ee 82be ee6b 65be
00000020: f45a 6cbf 7e8c ee3e 0d91 bbbe a422 f1be
00000030: 0104 283f ace8 69bd 5a85 ffbe 6a74 023f
00000040: 3cbe dc3d 9b52 87bf a389 973e f5d6 f7be
00000050: 9af9 f83e 7645 f43e 3818 9dbd f0b3 8a3e
00000060: e62f 523e e142 423d c0b6 293f 4373 99be
00000070: 3873 dfbf f304 d63e 2234 823f fe95 d8be
00000080: 5df0 03bf ca20 1cbe abc4 1dbe b766 3a3e
00000090: 60f2 a0be 6495 503d 139e 353e d4d5 3bbd
000000a0: 1355 733e 6156 d13d 84c0 86bd f914 593e
000000b0: 1337 533f a748 843f 4d27 ea3e 1fd0 57bf
000000c0: e79a 86bf 37a4 893e 33c4 3d3f 5fe7 263f
000000d0: dbaf 08bf 023c 40bf d9c9 cc3d d61c a43d
000000e0: 6a0a 383e b203 bebc 8c49 06bf e54c cb3e
000000f0: 30d5 0e3f 53e6 96be 6ce7 2340 4e63 933f
00000100: b931 afbe c8c6 05c0 0224 bebf 0ba6 13be
00000110: c6d0 b83d 94ec 373e c061 dcbd 1af8 e13d
00000120: 4361 96be adcd 79bd 08e5 5c3e 18df cfbe
00000130: 1be8 6dbd 0bc2 05be 5bf8 9ebd 5215 a7bd
00000140: d926 c03e cc19 4f3e 3676 44bf df42 1bbe
00000150: 1ba1 273f 5391 cf3e 1482 11bf 47ac 94bf
00000160: 2407 113f 8a17 3a3f b0e4 eabe 140d 2c3e
00000170: b108 c63e cc1f 9dbe b5bb 17be 261f 113f
00000180: 9a74 083d 4aaa 43bc 7b75 00bf 99ed ea3c
00000190: 07df 97bf b8b4 5b3e 4e15 7f3f c939 6dbf
000001a0: 3afe 09bf 5c09 dc3e bf95 f83e e32d e2be
000001b0: f2c0 f9bc d40f 033f 5d67 3cbe cc2f d9be
000001c0: 2357 07be 473c bb3a b21c b3bd f7e9 c53d
000001d0: 37cf 203f 7d87 5ebe 220c b6bf 96aa a1be
000001e0: 4c12 2f3f f2e1 033f a928 acbe dca5 2abf
000001f0: 3ae8 eabe 357f c03d b970 14be dd9a 803e
00000200: 1190 cd3d 9336 dcbe 970e ebbc 6b7a 863c
00000210: ecc6 f438 1fed 17be ada6 0f3e d078 003c
00000220: 854d 3fbf d028 c9bf 1bf5 ba3e d877 0840
00000230: a89f 57be 37f1 84bf 43e0 66bf 1d3d 08bc
00000240: 6739 3fbd bef9 3f3f ab52 59bf 6d8e 76be
00000250: 71f7 dbbe 7497 8d3d 7712 ff3d a7b0 26bf
00000260: c8d0 7cbe e323 3fbf 5702 c8be 89e2 ae3f
00000270: dd8c 1b3f 4688 77bf 9d2e 8ebe 8257 8e3f
00000280: 03a9 3b3e 3ad9 953e 95d0 ee3d 28f4 253e
00000290: 9f46 32bd 38e9 443e ff3e 2e3e 6aa0 373f
000002a0: a914 eebe da0f 49be a6a6 203f 745e 9bbe
000002b0: cca3 bdbf 5038 0e3f 2097 d23e 07bf 8cbf
000002c0: c043 c8bd c478 5a3f e2c2 a83e 570b 96be

final.weight_mlp.0.bias f4 [10]
-0.14844254 -0.20842008 -0.3898254 -0.11422916 -0.12780188 -0.027814634 0.12609445 0.16610073
0.013351981 -0.12773322
00000000: 5201 18be 136c 55be 3297 c7be faf0 e9bd
00000010: 7fde 02be 84db e3bc e71e 013e 4f16 2a3e
00000020: 44c2 5a3c 7fcc 02be

final.weight_mlp.2.weight f4 [20, 10]
0.21205766 -0.6121565 0.8088079 -0.47535285 -0.13242872 -1.2634553 -0.29654598 0.1976046
0.13678661 0.002392091 0.26833045 0.22867903 -0.36568815 0.100653514 0.5471934 0.3393489
0.0903188 1.0193768 -0.052338313 0.1331681 0.35270873 0.51571834 -0.015095066 -0.12739637
0.24248235 0.98201674 -0.23348497 -0.37962395 -0.074878745 0.3684806 -0.38661447 0.24341865
0.3290749 -0.02684572 0.122783296 0.13104846 0.34946454 0.67324215 -0.5106297 -0.10335482
0.17320456 -0.30036965 0.12043563 -0.22909191 -0.14003608 -0.28306592 0.21224919 -0.042650335
0.14403802 0.12384848 -0.17738692 0.007796289 -0.23043892 -0.18664259 -0.20848635 -0.19157882
0.110749125 0.2650025 -0.17768896 -0.22696194 -0.19416146 0.24189599 -0.057529718 0.0931742
0.10714172 -0.21251737 0.08006278 0.058528017 -0.19684257 0.11340294 0.21508828 0.25564137
-0.2003342 0.10477863 0.010347227 0.10698362 -0.20457062 -0.27520546 0.031827707 0.036489427
-0.114228584 0.13924745 -0.17832959 0.28555232 0.24312553 0.025479257 0.30562136 0.2071049
-0.08018601 0.26530185 0.16281764 -0.2960774 -0.30644664 -0.09018397 -0.22918323 0.14194748
0.08614105 0.11974818 0.24440418 -0.18305135 -0.2802323 -0.020335538 -0.25625345 0.13869153
-0.11735426 -0.05333378 -0.1948911 -0.14980845 0.049875848 -0.24227315 -0.20915179 -0.26889628
0.31508568 -0.19443993 0.06874281 -0.18439236 -0.045166362 0.20692939 -0.0022538076 0.21796161
0.5158609 0.3521968 -0.35944745 -1.559736 0.16881403 0.03979158 -1.0820265 -0.59639806
0.06126232 -0.6961946 0.32870388 0.4208084 -0.37474677 -0.36904347 0.3513199 0.025004
0.130615 0.13215236 -0.083152086 0.47053996 -0.18499272 0.44992292 0.32217515 0.13479163
-0.38681018 -0.54740834 -0.5241529 -0.5492404 -0.8647644 0.054148894 -0.81637216 -0.39169583
0.52374053 0.21121527 0.4311409 -0.043089453 0.32968917 -0.2199058 0.42539594 0.34396023
-0.12739809 0.11225204 0.07888206 -0.23945995 -0.28887343 -0.23877466 -0.09839158 0.052324474
-0.06026846 0.14291143 -0.056274284 0.21930838 0.2629625 0.20365521 0.107848994 0.20219517
-0.26348284 -0.12222512 -0.021221913 -0.120267995 0.036600523 -0.049931075 -0.05524447 0.15591198
-0.26677036 -0.00017016556 -0.17218319 -0.12436761 0.13179703 0.13399278 -0.26000893 0.16924672
0.08975554 -0.17543913 0.18714991 0.28049415 0.2397028 0.15617526 0.17645372 0.09769248
00000000: a525 593e 4ab6 1cbf 090e 4f3f 7361 f3be
00000010: 659b 07be e7b8 a1bf e0d4 97be dc58 4a3e
00000020: ca11 0c3e a1c4 1c3b 9c62 893e d62a 6a3e
00000030: 7a3b bbbe 6e23 ce3d de14 0c3f 24bf ad3e
00000040: 10f9 b83d f07a 823f b360 56bd 385d 083e
00000050: 3d96 b43e 1e06 043f 4c51 77bc 3274 02be
00000060: 4b4d 783e 7365 7b3f af16 6fbe 125e c2be
00000070: 075a 99bd 7da9 bc3e 55f2 c5be bd42 793e
00000080: 817c a83e 8eeb dbbc cf75 fb3d 9131 063e
00000090: 04ed b23e 9959 2c3f a1b8 02bf b1ab d3bd
000000a0: 895c 313e 0dca 99be f5a6 f63d 1297 6abe
000000b0: 9e65 0fbe 04ee 90be da57 593e 1eb2 2ebd
000000c0: b47e 133e 46a4 fd3d eba4 35be 0378 ff3b
000000d0: 2ef8 6bbe 3c1f 3fbe 727d 55be 3d2d 44be
000000e0: 70d0 e23d 68ae 873e 18f4 35be b668 68be
000000f0: 43d2 46be 95b3 773e 48a4 6bbd 1dd2 be3d
00000100: 1e6d db3d 279e 59be f4f7 a33d 13bb 6f3d
00000110: 1991 49be cd3f e83d 1a40 5c3e 6de3 823e
00000120: 6924 4dbe 2e96 d63d 6a87 293c 3a1a db3d
00000130: f67a 51be bbe7 8cbe c55d 023d f075 153d
00000140: adf0 e9bd e296 0e3e 089c 36be ea33 923e
00000150: e6f5 783e e0b9 d03c 677a 9c3e 4f13 543e
00000160: 9038 a4bd a5d5 873e abb9 263e 7597 97be
00000170: 93e6 9cbe 60b2 b8bd 02af 6abe ae5a 113e
00000180: b86a b03d 893e f53d 1745 7a3e d071 3bbe
00000190: 9c7a 8fbe b796 a6bc a733 83be 2705 0e3e
000001a0: 6e57 f0bd 8674 5abd 8891 47be 6367 19be
000001b0: 9e4a 4c3d 7416 78be e32b 56be c6ac 89be
000001c0: e952 a13e 431b 47be 08c9 8c3d 5ad1 3cbe
000001d0: 5d00 39bd 4ce5 533e 9eb4 13bb 5431 5f3e
000001e0: 760f 043f 2453 b43e 7f09 b8be 6ea5 c7bf
000001f0: 96dd 2c3e 7ffc 223d d87f 8abf 8bad 18bf
00000200: 33ee 7a3d cf39 32bf e04b a83e 3374 d73e
00000210: cfde bfbe 44f3 bcbe 34e0 b33e 30d5 cc3c
00000220: f0bf 053e f352 073e a44b aabd 9dea f03e
00000230: bb6e 3dbe 4c5c e63e 24f4 a43e d106 0a3e
00000240: fc0b c6be f422 0cbf e22e 06bf 059b 0cbf
00000250: 3361 5dbf 3bcb 5d3d c4fd 50bf 5b8c c8be
00000260: dc13 063f d148 583e 80be dc3e 917e 30bd
00000270: 05cd a83e fc2e 61be 7fcd d93e 8e1b b03e
00000280: a574 02be 66e4 e53d eb8c a13d fd34 75be
00000290: 38e7 93be 5881 74be 8681 c9bd 3052 563d
000002a0: 10dc 76bd 6057 123e dd7f 66bd 6092 603e
000002b0: 05a3 863e fe8a 503e efdf dc3d 400c 4f3e
000002c0: 39e7 86be 2a51 fabd 94d9 adbc 114f f6bd
000002d0: 6eea 153d 8784 4cbd 0648 62bd 64a7 1f3e
000002e0: 2096 88be 786e 32b9 ca50 30be 72b4 febd
000002f0: cdf5 063e 6735 093e e41f 85be 034f 2d3e
00000300: c1d1 b73d 51a6 33be 3aa4 3f3e ee9c 8f3e
00000310: a774 753e 68ec 1f3e 49b0 343e ff12 c83d

final.weight_mlp.2.bias f4 [20]
-0.07755741 -0.020269975 0.14942908 0.030952547 -0.27069986 0.272641 -0.29246506 0.23716566
0.005100782 -0.0110160895 0.13069175 0.14250849 -0.16842404 0.09393104 -0.057723787 0.3037066
0.20164815 0.09473577 -0.23841906 -0.23793012
00000000: 6bd6 9ebd 380d a6bc f003 193e 3290 fd3c
00000010: 2c99 8abe 9a97 8b3e fbbd 95be 8edb 723e
00000020: 7624 a73b d47c 34bc 0fd4 053e bfed 113e
00000030: 5a77 2cbe eb5e c03d c76f 6cbd 6e7f 9b3e
00000040: da7c 4e3e d404 c23d 2024 74be f4a3 73be
