NequIP/NequIP/twobody-ff/best_two_body_nn.pth (torch, 4583 bytes, 6 tensors)

type_embedding.weight f4 [3, 8]
-1.9275087 -0.2545564 0.0016289063 -0.8031199 -0.5028305 -1.6840967 0.0013240932 -0.6073541
0.22097638 -0.259566 -0.0005197236 0.01704818 -0.72841996 0.86995715 -0.0014215653 -0.19512124
-0.6053551 0.45903882 0.005253442 -0.06425998 1.621525 -0.47394106 0.00276082 0.5798004
00000000: 9bb8 f6bf 3755 82be 0781 d53a 4499 4dbf
00000010: 80b9 00bf 7b90 d7bf 328d ad3a 8f7b 1bbf
00000020: a247 623e d6e5 84be 0f3e 08ba a0a8 8b3c
00000030: bb79 3abf 83b5 5e3f d153 baba ddcd 47be
00000040: 8df8 1abf 2307 eb3e 1125 ac3b bd9a 83bd
00000050: 228e cf3f 67a8 f2be e0ee 343b cd6d 143f

mlp.0.weight f4 [10, 26]
0.57129633 -0.0004490382 0.14158773 0.67142963 -0.8820968 0.11019087 -0.03388568 -0.20387943
1.225079 -0.18263482 -0.11303532 1.9052134 -0.8082066 -0.07624053 0.08861219 -1.0916513
-0.792897 -0.69132644 1.7659935 0.9249604 -1.4326677 -0.5420428 -0.7770762 1.2080964
-2.2512789 4.433908 -0.11239206 0.59954655 0.06277867 0.31594455 0.4586893 -0.452871
0.017452618 0.33990887 0.0056876778 0.47252977 0.023025956 0.049719654 0.40598595 -0.45424718
0.08035244 0.8810857 1.6537633 -2.3255563 2.4330847 0.61328393 -2.2842195 0.17727482
1.8905907 0.3643821 -1.759039 -1.928158 0.89513814 0.4431495 -0.06641087 0.49303177
0.32605544 0.10435023 -0.0022741482 0.23484662 0.23199154 0.3644851 0.038156986 0.4048756
0.7406351 0.09109667 -0.0761712 0.6485189 -0.6250935 0.9647932 0.80428475 -0.5115992
-1.549544 1.9776503 1.1790675 1.0928276 -1.1482279 -0.2641843 1.537519 -0.055397045
-0.003737152 0.892809 -0.12029874 0.59732735 0.038699295 0.51509494 0.5722805 0.33521006
0.012845556 0.68569845 0.3532675 0.4273912 -0.0044677905 1.1569272 0.84295905 -0.080017716
3.5300312 2.4963138 -0.64947563 0.89787716 -1.6541772 -2.8875184 0.53511655 0.39680475
-0.20848791 0.72231305 0.08547267 0.4194236 0.23458458 0.07494327 0.03433558 0.7758833
-0.24016383 1.2126076 -0.022207422 0.04857122 1.3340834 -0.5655381 0.053264633 0.42266124
-0.51938725 1.1772968 2.4796317 1.9483327 -0.87058127 -1.1434405 -1.502546 0.40827796
1.0352455 1.3822948 0.64402074 -0.20242906 -0.06402508 0.937976 -0.47888815 0.52412736
-0.106991805 0.27337503 0.67974114 0.21719949 0.00034674242 0.28256527 -0.24153705 0.6506636
0.14901909 0.32989797 0.19099288 0.39969164 -0.31312782 -2.012169 4.193519 3.4021885
-2.01628 0.83352774 -1.7559754 -1.6983644 0.113710515 0.800997 -0.03765578 0.17641734
0.72785074 -0.20228441 0.08717624 0.70557225 -0.68599874 0.9740221 -0.034146916 -0.73166573
0.9690878 -0.87667197 -0.07974531 -0.24616165 -3.523438 -2.248106 1.6123002 1.3053435
-0.78646326 -0.016019208 0.5705392 0.24902818 -0.6839457 0.16426753 0.64938426 0.4341702
0.015750853 0.5963835 0.20822635 0.20719798 0.00034537824 0.6930156 1.0964091 -0.053716104
0.0340762 1.415439 -0.12304875 0.33120254 0.003775252 0.17992957 0.41723746 0.87363124
-0.71408486 -2.0024118 5.736695 -0.053071328 -1.0225879 -1.0905712 0.08203655 -1.0307821
0.34700695 0.9639735 -0.030065313 0.105791084 0.15738036 -0.28453392 -0.014253918 0.45066756
0.5852557 -0.15208283 -0.013838699 0.091627076 -0.259202 -0.26943445 -0.00835459 -0.24775222
2.9440126 1.1596967 -2.9706209 -2.798664 1.0878019 -0.5631438 1.2697175 0.17658538
-0.30091557 -1.6208122 -0.21285169 -0.037418026 0.01722224 -0.20784849 -0.22005937 0.07134475
0.014235063 -0.39042553 -0.78192216 0.27509016 -0.0015022171 -0.28826025 0.81523037 -0.2809129
-0.0041941344 0.34109807 0.0007057764 0.5334136 -2.4875588 -2.1232932 1.5747645 3.9597793
00000000: 7a40 123f e36c ebb9 60fc 103e d0e2 2b3f
00000010: 19d1 61bf c0ab e13d b6cb 0abd c5c5 50be
00000020: 64cf 9c3f 9f04 3bbe 107f e7bd 08de f33f
00000030: a1e6 4ebf ff23 9cbd 4f7a b53d 3bbb 8bbf
00000040: 4cfb 4abf c5fa 30bf 130c e23f 34ca 6c3f
00000050: a861 b7bf 51c3 0abf 77ee 46bf e7a2 9a3f
00000060: f414 10c0 93e2 8d40 cf2d e6bd e27b 193f
00000070: 1a92 803d 7cc3 a13e 53d9 ea3e b5de e7be
00000080: cbf8 8e3c 8908 ae3e b35f ba3b 6cef f13e
00000090: eea0 bc3c d6a6 4b3d 64dd cf3e 1693 e8be
000000a0: d28f a43d d58e 613f 84ae d33f ead5 14c0
000000b0: a9b7 1b40 2d00 1d3f a730 12c0 8887 353e
000000c0: e0fe f13f 4a90 ba3e 3128 e1bf e2cd f6bf
000000d0: c627 653f 7ee4 e23e 6c02 88bd a96e fc3e
000000e0: bdf0 a63e 93b5 d53d e009 15bb a27b 703e
000000f0: 318f 6d3e cb9d ba3e 804a 1c3d db4b cf3e
00000100: 439a 3d3f e490 ba3d a5ff 9bbd 5605 263f
00000110: 2106 20bf b0fc 763f 9be5 4d3f 2af8 02bf
00000120: 7557 c6bf a523 fd3f afeb 963f c6e1 8b3f
00000130: 22f9 92bf 2a43 87be 6ccd c43f 03e8 62bd
00000140: 02eb 74bb 218f 643f 305f f6bd 72ea 183f
00000150: 2783 1e3d 43dd 033f fa80 123f a7a0 ab3e
00000160: 2b76 523c ef89 2f3f 7adf b43e 05d3 da3e
00000170: 8b66 92bb 3116 943f 2acc 573f 54e0 a3bd
00000180: 08ec 6140 9bc3 1f40 0944 26bf 47db 653f
00000190: 14bc d3bf 1acd 38c0 66fd 083f fe29 cb3e
000001a0: db7d 55be 82e9 383f 4c0c af3d b1be d63e
000001b0: f136 703e db7b 993d 77a3 0c3d 4aa0 463f
000001c0: 82ed 75be ba36 9b3f 57ec b5bc 9ef2 463d
000001d0: 3fc3 aa3f 1bc7 10bf 042c 5a3d 0e67 d83e
000001e0: 90f6 04bf a9b1 963f 49b2 1e40 f762 f93f
000001f0: 6ade 5ebf 425c 92bf 6d53 c0bf cf09 d13e
00000200: ed82 843f 09ef b03f 8bde 243f 9049 4fbe
00000210: 951f 83bd 321f 703f d430 f5be 362d 063f
00000220: 851e dbbd d0f7 8b3e 8403 2e3f 8b69 5e3e
00000230: fbca b539 65ac 903e 7d55 77be e491 263f
00000240: 7698 183e 63e8 a83e a393 433e 62a4 cc3e
00000250: 4a52 a0be 60c7 00c0 4f31 8640 75bd 5940
00000260: bb0a 01c0 1362 553f cdc3 e0bf 0164 d9bf
00000270: 0fe1 e83d 240e 4d3f f23c 1abd bfa6 343e
00000280: 6d54 3a3f a523 4fbe 7589 b23d 62a0 343f
00000290: 9d9d 2fbf 8359 793f a3dd 0bbd 724e 3bbf
000002a0: 2316 783f 936d 60bf 8251 a3bd cd11 7cbe
000002b0: 0280 61c0 f8e0 0fc0 da5f ce3f 7f15 a73f
000002c0: a855 49bf b73a 83bc db0e 123f 3e01 7f3e
000002d0: 1117 2fbf bf35 283e 0c3e 263f 8e4b de3e
000002e0: ef07 813c 97ac 183f 4a39 553e b52b 543e
000002f0: e213 b539 7869 313f 2257 8c3f 6b05 5cbd
00000300: 7c93 0b3d 1b2d b53f fc00 fcbd 6193 a93e
00000310: 386a 773b 753f 383e 26a0 d53e 4ca6 5f3f
00000320: 44ce 36bf 8427 00c0 0193 b740 5261 59bd
00000330: 29e4 82bf d697 8bbf c702 a83d abf0 83bf
00000340: e5aa b13e f8c6 763f 884b f6bc ffa8 d83d
00000350: 5128 213e 6eae 91be 4489 69bc e6bd e63e
00000360: 51d3 153f 9abb 1bbe b6bb 62bc faa6 bb3d
00000370: 20b6 84be 50f3 89be b1e1 08bc c2b2 7dbe
00000380: b46a 3c40 f170 943f a71e 3ec0 501d 33c0
00000390: 183d 8b3f 312a 10bf 1a86 a23f ccd2 343e
000003a0: 9b11 9abe c676 cfbf cbf5 59be a543 19bd
000003b0: a815 8d3c 3cd6 54be 3e57 61be 321d 923d
000003c0: 2f3a 693c dbe5 c7be 0d2c 48bf 9ed8 8c3e
000003d0: 0be6 c4ba d996 93be f0b2 503f d1d3 8fbe
000003e0: f36e 89bb 68a4 ae3e da03 393a cb8d 083f
000003f0: 2a34 1fc0 09e4 07c0 e291 c93f 066d 7d40

mlp.0.bias f4 [10]
-0.73627424 -1.055738 0.16209164 0.10295705 0.09476131 -0.096816584 -0.27767333 -0.7570016
-0.6582601 -0.052659046
00000000: 787c 3cbf 6c22 87bf 5afb 253e 25db d23d
00000010: 3812 c23d c647 c6bd 332b 8ebe dbca 41bf
00000020: bc83 28bf 03b1 57bd

mlp.2.weight f4 [10, 10]
0.7758486 1.0524969 -0.3973761 -0.20832779 -1.8312496 0.7574199 -1.1399713 3.3553767
1.3625013 0.040513884 1.2789372 -2.1300986 0.3146654 1.2201371 -0.098995455 -0.49071994
0.40562218 0.8799228 -1.2261804 -0.2625459 -1.3292708 -0.5229427 0.1705104 -1.910549
0.49525613 0.4606475 -0.9753733 0.45714483 -0.61639714 -1.3261586 -0.5590002 -0.5818158
0.49004558 -2.7841132 0.754514 0.12784225 -1.2431463 0.73488766 -0.99629486 -1.897991
-0.82916397 0.42140883 0.7931831 -2.4293041 0.62852484 0.15247524 -1.0620159 0.8307164
-1.0513535 -1.5384355 -0.65332776 0.8216055 -0.16697182 -0.037437785 -2.0902865 0.9713532
-2.1718516 2.5777578 1.4506463 0.48052874 0.24786262 1.3924431 1.1545194 -0.790423
-0.22881447 1.7367076 0.4731973 -0.5442552 0.5595014 -1.2790374 -0.21120237 0.29682696
0.36305544 -1.096044 -0.13294002 1.1136285 -0.12707074 -0.72430867 0.71828246 -0.5375515
0.2646819 -0.9567003 -0.18560569 -1.5996377 -0.30318007 -0.47904745 0.39490294 -1.0204272
0.6853222 -0.6481581 -0.32183734 0.41174507 0.3985793 -2.769675 0.77204615 -0.12537405
-0.87424505 0.29362002 -0.7874865 -2.498502
00000000: 049e 463f 38b8 863f e174 cbbe e153 55be
00000010: 6366 eabf 45e6 413f 94ea 91bf 7ebe 5640
00000020: 7166 ae3f e3f1 253d 37b4 a33f 8953 08c0
00000030: d31b a13e 742d 9c3f 21be cabd a53f fbbe
00000040: b6ad cf3e 9f42 613f 7bf3 9cbf 6b6c 86be
00000050: 8c25 aabf 93df 05bf 479a 2e3e df8c f4bf
00000060: 3692 fd3e fdd9 eb3e 11b2 79bf e30e ea3e
00000070: 34cc 1dbf 91bf a9bf a31a 0fbf e1f1 14bf
00000080: 41e7 fa3e e92e 32c0 d427 413f 14e9 023e
00000090: 6b1f 9fbf 9921 3c3f 2e0d 7fbf 5ef1 f2bf
000000a0: 1744 54bf e6c2 d73e 0c0e 4b3f b879 1bc0
000000b0: 01e7 203f 7822 1c3e 23f0 87bf d4a9 543f
000000c0: c092 86bf 74eb c4bf 7d40 27bf bd54 523f
000000d0: a9fa 2abe 5d58 19bd 41c7 05c0 9aaa 783f
000000e0: 9eff 0ac0 fcf9 2440 c7ae b93f dd07 f63e
000000f0: b3cf 7d3e 933b b23f 4bc7 933f 2959 4abf
00000100: 574e 6abe 6f4c de3f eb46 f23e 4f54 0bbf
00000110: 7c3b 0f3f 7fb7 a3bf 6f45 58be b4f9 973e
00000120: 67e2 b93e 2b4b 8cbf 6e21 08be 618b 8e3f
00000130: d51e 02be 4b6c 39bf 5ce1 373f fa9c 09bf
00000140: 6384 873e 50ea 74bf 6b0f 3ebe eec0 ccbf
00000150: 6b3a 9bbe b545 f5be b830 ca3e 5c9d 82bf
00000160: 4771 2f3f b0ed 25bf ddc7 a4be 40d0 d23e
00000170: 9612 cc3e 5b42 31c0 d1a4 453f 0e62 00be
00000180: 86ce 5fbf 5d55 963e b798 49bf 75e7 1fc0

mlp.2.bias f4 [10]
-0.3852274 0.04551635 -0.27627492 -0.20929497 -0.4438118 0.22276917 -0.9555988 -0.815735
-0.34999293 -0.5358499
00000000: 873c c5be 5a6f 3a3d e873 8dbe 6c51 56be
00000010: 4d3b e3be 9a1d 643e 1fa2 74bf 02d4 50bf
00000020: 4632 b3be 762d 09bf

mlp.4.weight f4 [1, 10]
1.1404289 -0.907918 -1.4032917 -1.5397643 -1.7825112 1.0519851 -1.0781395 -0.918849
-1.9420716 -1.1676075
00000000: 93f9 913f 506d 68bf 109f b3bf ff16 c5bf
00000010: 5429 e4bf 73a7 863f 7a00 8abf b039 6bbf
00000020: cd95 f8bf 2a74 95bf
