NequIP/NequIP/twobody-ff/best_two_body_nn.pth (torch, 4583 bytes, 6 tensors)

type_embedding.weight f4 [3, 8]
000000 1d 0e ed bf 36 59 23 bc 1d 8d 88 bb 1f 03 21 bf
       -1.8519932 -0.00997 -0.0041672126 -0.6289539
000010 b4 54 ea be 27 3e 94 bf 1a 1c 8f 3a a4 75 01 bf
       -0.45767748 -1.1581467 0.0010918409 -0.5057013
000020 c1 a8 60 3e ca 23 2e bc 68 27 c0 3a b5 1f a4 3c
       0.21939375 -0.01062865 0.0014660181 0.02003465
000030 38 e0 5b bf df f9 a6 3e 8b 12 56 3b 90 2f 8c bd
       -0.85889006 0.32612512 0.003266486 -0.06845009
000040 b6 b1 0d bf 06 a4 00 3c 9d 89 0e bb da 19 0d 39
       -0.5534929 0.007851606 -0.0021749504 0.00013456438
000050 ae 8c c1 3f a9 f8 7b be ae 38 a2 3a f7 b5 be 3e
       1.5121057 -0.24606575 0.0012376511 0.37248203

mlp.0.weight f4 [10, 26]
000000 2f 30 33 3f f0 24 27 be 49 c1 34 bd 6a 4c 22 3f
       0.699954 -0.16322684 -0.044129644 0.6339785
000010 35 a6 6f bf b4 6a 37 3e 15 e0 ed bb 31 1e 70 be
       -0.93612987 0.17911798 -0.0072593787 -0.23449017
000020 91 9e aa 3f ba 3e 90 be d4 2a be bc 34 d8 f0 3f
       1.3329641 -0.28172857 -0.023213781 1.881598
000030 2e 33 37 bf 61 84 ca bc 17 34 7a bc d4 e1 09 bf
       -0.7156247 -0.024721326 -0.015271208 -0.5386021
000040 73 6a 16 bf d1 4d 95 bf 18 12 20 40 f5 19 86 3f
       -0.5875618 -1.1664373 2.5011044 1.0476671
000050 ef fb fd bf 40 06 47 3e 63 ab c3 bf 17 3f de 3f
       -1.9842509 0.19435978 -1.5286678 1.7363003
000060 3e d4 12 c0 47 e4 96 40 a4 a8 70 be 6f 12 1c 3f
       -2.2942042 4.715366 -0.23501831 0.6096563
000070 f6 2b 07 bd ff f5 f8 3e f0 f0 4a 3f 87 2e 2b bf
       -0.03300091 0.4862518 0.7927389 -0.6686787
000080 a4 f2 24 3a 66 0b f3 3e 22 3f c2 bd 57 41 39 3f
       0.000629226 0.47469634 -0.09484698 0.72365326
000090 bd e9 09 bd 84 27 43 3e 72 a6 31 3f e0 9a 11 bf
       -0.033670176 0.19058043 0.693946 -0.56876945
0000a0 75 9d cb bc b0 3f 9b 3f 68 42 0d 40 49 ad 34 c0
       -0.024855355 1.2128811 2.207178 -2.8230765
0000b0 5d 81 4b 40 f8 5d aa 3e ee ca 06 c0 76 59 19 bd
       3.1797707 0.33274817 -2.1061358 -0.037438832
0000c0 76 c1 f9 3f 0b 44 26 3d c3 ec ed bf 5b 2e 03 c0
       1.9512165 0.040592235 -1.8587879 -2.0497043
0000d0 de a8 9a 3f 17 34 1f 3f b0 f4 10 3b 32 e0 0a 3f
       1.2082784 0.6218886 0.0022118501 0.54248345
0000e0 fa 47 03 3f ab cf 4c 3c 81 b5 fb 3a f1 c2 8e 3e
       0.512817 0.012500684 0.0019203873 0.27883103
0000f0 c8 0d 6c 3e db 67 44 3f 29 8c 6b bb 8f 97 ed 3e
       0.23052132 0.7672097 -0.0035941696 0.46404693
000100 1c 72 8a 3f 41 bf c5 bd ba fe a0 bc 98 6d 4c 3f
       1.0816073 -0.096556194 -0.019652713 0.79854727
000110 92 a5 15 bf 36 cc 83 3f 3f 49 ca 3e e1 d1 09 bf
       -0.58455765 1.0296695 0.39509007 -0.53835875
000120 d1 62 bb bf c6 a9 86 3f dd 22 a5 3f c7 1d af 3f
       -1.4639531 1.0520561 1.2901264 1.3680962
000130 b4 a4 85 bf 86 71 77 be 3e 49 de 3f 03 3d 9e 3b
       -1.0440888 -0.241644 1.7366102 0.0048290505
000140 72 fb c7 bc 0c 1c 83 3f 7b c1 31 be 68 c5 24 3f
       -0.02441189 1.0242934 -0.17358963 0.6436372
000150 23 15 85 bc d4 41 ce 3e 9c 02 4c 3f da c5 84 3e
       -0.01624543 0.40284598 0.7969148 0.259322
000160 04 92 59 bb 9d 8c 5e 3f f5 25 04 3f 49 25 fb 3e
       -0.0033198604 0.8693331 0.5162042 0.49051884
000170 eb 46 78 3c c5 61 90 3f 51 cc 9f 3f 84 98 c2 3d
       0.015153627 1.1279837 1.2484227 0.09501746
000180 0b 4b 48 40 d9 01 21 40 7f 82 76 bf 58 a7 98 3f
       3.1295803 2.5157378 -0.9629287 1.1926069
000190 24 fc f2 bf 41 f8 2c c0 c9 0a eb 3e 7b 26 fb 3e
       -1.8983197 -2.7026522 0.45906666 0.49052796
0001a0 fb 27 4b bd d0 82 f8 3e a8 ef 05 3c c3 6c 75 3e
       -0.049598675 0.48537302 0.008174814 0.2396727
0001b0 d0 ef 03 3f d5 8c 43 bc 69 80 03 bd e0 de 7f 3f
       0.515378 -0.011935432 -0.032104883 0.99949455
0001c0 1c 80 88 be d0 95 93 3f 4c df ad bc 45 41 ee 3d
       -0.2666024 1.1530094 -0.02122464 0.11633543
0001d0 55 82 d5 3f f4 f4 2d bf dc bd 20 bc 83 65 27 3f
       1.6680399 -0.67951894 -0.009810891 0.6538927
0001e0 17 8d 66 bf bc 4c 9e 3f 25 07 2c 40 ee ad fa 3f
       -0.90059036 1.2367167 2.687936 1.9584329
0001f0 0c 2d 72 bf 85 41 a0 bf 36 37 b7 bf ed 13 04 3f
       -0.94599986 -1.2519995 -1.4313724 0.51592904
000200 99 5d 8c 3f aa 91 a9 3f 3d 7b 5a 3f e7 bb 6b be
       1.0966064 1.3247578 0.85344297 -0.23020898
000210 01 0e 10 bd e1 7e 93 3f e3 82 0a bf 24 a9 24 3f
       -0.035169605 1.1523095 -0.5410597 0.6432059
000220 0c d4 e6 bc 26 67 5a 3e 04 5e 3b 3f bc 74 7c 3e
       -0.028177284 0.2132841 0.7319033 0.24653906
000230 69 09 3a bd 47 20 b1 3e e9 eb 1a be 57 b6 3a 3f
       -0.04541913 0.34594938 -0.15129055 0.7293448
000240 a6 a0 59 bd 2c ee d1 3e 9a dd ec 3d a9 ba e8 3c
       -0.053131722 0.41002023 0.11565705 0.028409319
000250 d7 d5 fd be 93 0b f1 bf 82 10 9e 40 e1 67 6b 40
       -0.4957721 -1.8831657 4.939515 3.6782153
000260 13 9d 30 c0 11 7e 03 3f a1 76 17 c0 25 7d e8 bf
       -2.759587 0.5136424 -2.3666155 -1.8163191
000270 a8 05 8c 3d 09 0c 98 3f 01 99 34 bb ef 27 e8 3e
       0.06837016 1.1878673 -0.0027557018 0.45342967
000280 ec 93 8b 3f 77 a9 de be 87 e2 e6 3c cc bb 99 3f
       1.0904517 -0.43488666 0.028184189 1.2010436
000290 a4 2a 64 bf 03 df 5a 3f 8b a0 9e 3b d2 51 54 bf
       -0.89127564 0.8549654 0.0048409156 -0.8293735
0002a0 b6 74 d0 3f b4 22 94 bf 70 fd 24 bc 63 a6 c7 be
       1.6285617 -1.157309 -0.01007019 -0.3899413
0002b0 04 a8 71 c0 72 17 0c c0 62 47 d9 3f 61 24 8b 3f
       -3.7758799 -2.188931 1.6974909 1.0870477
0002c0 11 fb 67 bf 89 a3 b6 3e 26 30 0d 3f 81 aa 26 3f
       -0.9061747 0.35671642 0.55151594 0.6510392
0002d0 84 8a 12 bf 9c be 03 3f e9 72 40 3f 49 49 a9 3d
       -0.5724261 0.5146272 0.7517534 0.08265931
0002e0 de fb ab 3c 96 02 10 3f 48 7c e7 3e 7c d0 c4 3e
       0.020994123 0.56253946 0.45212007 0.3844031
0002f0 8d d5 a6 bb 80 af 47 3f 73 65 9f 3f 01 1f 07 be
       -0.005091375 0.78002167 1.2452835 -0.13195421
000300 ef bd 85 ba 2b 26 bf 3f 92 89 4a be d1 c0 e7 3e
       -0.0010203699 1.4933523 -0.19779041 0.45264295
000310 1c 63 29 bc 37 e8 86 3d 9a cd 18 3f 64 67 05 3f
       -0.010338571 0.0658726 0.59688723 0.52110887
000320 c7 82 4f bf 41 5f 00 c0 ce 53 c2 40 3e bc d6 be
       -0.81058925 -2.0058138 6.07273 -0.41940492
000330 fc b1 1d bf bd ba 92 bf fb ae 71 3e 41 87 81 bf
       -0.6159971 -1.1463238 0.23601906 -1.0119401
000340 82 7c a8 3e 9d ff 71 3f 7d 6a 0e 3c 13 b2 98 3c
       0.32907492 0.9453066 0.008692381 0.0186396
000350 e4 08 0d 3f 90 1f de be 9c 8e d1 bb 3f 79 f6 3e
       0.5509169 -0.43383455 -0.006395174 0.48139378
000360 a9 67 1e 3f fe 2b f9 bd a8 72 01 bc e1 4b cc bc
       0.6187692 -0.12166594 -0.007900871 -0.024938526
000370 96 8a 7e be db 91 c8 be d8 9f 83 3b e7 93 b3 be
       -0.24857554 -0.3917378 0.0040168576 -0.35073778
000380 22 9f 45 40 8b f7 23 3f 53 de 33 c0 db b7 46 c0
       3.0878377 0.64049596 -2.8104446 -3.1049716
000390 db 70 84 3f c5 80 47 bf 09 6f a9 3f 07 14 4e 3e
       1.0346941 -0.7793086 1.323701 0.20124827
0003a0 c8 c6 d2 be b3 f5 aa bf 39 bd 5d be b9 79 28 bd
       -0.41167283 -1.3356231 -0.21654214 -0.04113171
0003b0 23 bc 60 bc f4 36 7f be f0 60 d7 be 38 f1 21 3e
       -0.01371673 -0.24923307 -0.42066145 0.15814674
0003c0 ba 36 fd 3c fd 60 cc be 5e d8 53 bf f9 33 14 3f
       0.030909885 -0.39917746 -0.82752025 0.57891804
0003d0 19 09 73 bc cb 75 4a be 3c 6b 7f 3f fb db 96 be
       -0.014833712 -0.19771497 0.99773 -0.29464707
0003e0 70 75 a3 b8 6d 39 e2 3e 68 12 a5 3d 68 39 f7 3e
       -7.79432e-05 0.44184437 0.08060151 0.48285985
0003f0 ac dd 1b c0 05 98 0e c0 c4 96 dd 3f 21 50 80 40
       -2.4354048 -2.2280285 1.7311635 4.0097814

mlp.0.bias f4 [10]
000000 18 c8 20 bf 20 16 b5 bf 3a 9d 12 3e 98 40 d5 3d
       -0.6280532 -1.4147377 0.1431779 0.10412711
000010 37 23 bd 3d 81 01 19 be 0b bc ec be 61 80 65 bf
       0.09235232 -0.1494198 -0.46237215 -0.89649016
000020 1e e9 6c bf 9a bc a4 bd
       -0.9254321 -0.080437854

mlp.2.weight f4 [10, 10]
000000 51 5e 53 3f 3d bc 90 3f 2c e0 c1 be 90 dc 7d be
       0.8256579 1.1307446 -0.37866342 -0.24791169
000010 3c 3c f4 bf 24 44 50 3f b5 d7 bb bf 21 12 75 40
       -1.9080882 0.81353974 -1.4675204 3.8292315
000020 4d c3 aa 3f a9 e8 1f 3b c5 08 b0 3f 85 cd 11 c0
       1.3340851 0.002440015 1.3752676 -2.278169
000030 c4 d7 fb 3c 5b b7 a8 3f fd 83 17 be 6b 08 05 bf
       0.030742534 1.3180956 -0.14796443 -0.5196597
000040 b4 08 83 3e 2c 9c 83 3f d1 99 b8 bf 81 29 a8 be
       0.25592577 1.0282035 -1.4421941 -0.32844165
000050 be f8 db bf d0 81 63 bf 9f 2b dd be bb c4 ef bf
       -1.7185285 -0.88869953 -0.43197343 -1.8731912
000060 db 98 fa 3e ad 5e 83 3e a3 a2 33 bf 96 f8 99 3e
       0.48944744 0.2565817 -0.7017004 0.3007247
000070 f2 10 07 bf 2b 19 a0 bf 6e 31 36 bf ac d0 75 bf
       -0.5276023 -1.2507681 -0.71169174 -0.96021533
000080 d4 55 9c 3e a8 22 4d c0 e0 4f 62 3f 46 ea 7a 3e
       0.30534232 -3.2052402 0.8840313 0.2450343
000090 49 7c b4 bf ed 08 cf 3e 27 f6 75 bf f2 28 f6 bf
       -1.4100429 0.40436497 -0.96078724 -1.9231246
0000a0 20 b0 00 bf 39 a2 01 3f fa 3e 49 3f ee de 23 c0
       -0.50268745 0.5063816 0.7861172 -2.5604815
0000b0 26 dd 14 3f e1 d9 1e 3f 8c a8 95 bf e1 61 2f 3f
       0.58149946 0.62051207 -1.1692061 0.68508726
0000c0 73 8f 87 bf db 87 ca bf ba 09 25 bf 6e e8 6f 3f
       -1.0590652 -1.582271 -0.64467967 0.93714035
0000d0 7c c7 d5 be ca 6f 04 3e ec ed 04 c0 0e 41 9b 3f
       -0.41753757 0.12933269 -2.0770216 1.2129228
0000e0 ff 82 2a c0 de 91 31 40 31 08 bc 3f f7 66 f9 3e
       -2.6642454 2.774528 1.469 0.48711368
0000f0 83 74 ba 3e 9c ff c2 3f b6 85 97 3f d4 74 1f bf
       0.36417016 1.5234256 1.183768 -0.6228764
000100 34 4b ef be e8 e9 02 40 85 fe f2 3e 0f 9d 7c bf
       -0.46737063 2.0455265 0.47459808 -0.9867715
000110 8b 69 5a 3f 06 94 aa bf 62 c1 9f be 6a bf 6b be
       0.85317296 -1.3326423 -0.31202227 -0.23022237
000120 e4 42 2d 3e 54 02 80 bf 53 8c 1a be 47 01 88 3f
       0.16920048 -1.000071 -0.15092592 1.062539
000130 f8 50 77 3d c2 ac 5d bf 7a 2b 5c 3f 56 00 16 bf
       0.060379952 -0.8659173 0.8600384 -0.5859426
000140 3d ba 7b 3e a3 24 71 bf fa a6 d7 be a9 5d db bf
       0.24582763 -0.9419653 -0.4211958 -1.7137958
000150 98 57 d0 be e1 c3 20 bf 69 ed cb 3e a2 8b 5d bf
       -0.4069183 -0.6279889 0.39829567 -0.8654119
000160 bb bf 43 3f 99 64 f4 be e4 5f 63 be d7 22 0d 3f
       0.7646443 -0.47733 -0.22204548 0.55131286
000170 fb 4d db 3e f5 58 38 c0 12 5f 4c 3f e6 cb 04 3f
       0.42832932 -2.8804295 0.79832566 0.51873624
000180 a5 a1 90 bf b6 87 1e 3f c1 44 8d bf 7b 35 23 c0
       -1.129933 0.6192583 -1.1036607 -2.5501392

mlp.2.bias f4 [10]
000000 94 7b 1c bf 39 03 ec 3d e9 ab 00 bf 47 9d 2b be
       -0.61126065 0.11524052 -0.50262314 -0.16759215
000010 42 41 02 bf b1 43 a8 3e 75 82 88 bf ae 29 6c bf
       -0.50880826 0.32864144 -1.0664812 -0.922511
000020 7b 5d e4 be 23 f9 0f bf
       -0.4460257 -0.5623953

mlp.4.weight f4 [1, 10]
000000 d4 82 99 3f 60 4f 84 bf 91 dd c2 bf 31 75 d1 bf
       1.199305 -1.0336723 -1.5223867 -1.6363889
000010 d3 24 f3 bf 9b 42 94 3f a6 2b 83 bf 73 8f 51 bf
       -1.8995613 1.1582826 -1.0247695 -0.8185951
000020 77 8f fc bf 30 eb 99 bf
       -1.9731282 -1.2024899
