NequIP/forcefield/twobody-ff/best_two_body_nn.pth (torch, 4583 bytes, 6 tensors)

type_embedding.weight f4 [3, 8]
-1.8284802 0.001818525 -0.0016549212 -0.56981945 -0.44022864 -1.0364552 -0.0037079512 -0.48333225
0.21382895 -0.0032744398 -0.0023162 0.019897154 -0.86100805 0.27141565 -0.0002475306 -0.053625315
-0.5504008 -0.0075470875 0.00044643355 0.01159111 1.4941857 -0.14578746 -0.0009440011 0.32933125
00000000: a40b eabf 935b ee3a f1e9 d8ba b0df 11bf
00000010: a665 e1be 90aa 84bf 1901 73bb 5377 f7be
00000020: faf5 5a3e fc97 56bb 63cb 17bb 5bff a23c
00000030: 066b 5cbf fef6 8a3e ffc6 81b9 38a6 5bbd
00000040: 11e7 0cbf 8f4d f7bb 4c0f ea39 a4e8 3d3c
00000050: 7a41 bf3f 4f49 15be d776 77ba 1b9e a83e

mlp.0.weight f4 [10, 26]
0.7240154 -0.11464111 0.025823483 0.62260073 -0.93504906 0.19085228 0.01064515 -0.16484888
1.3617264 -0.27059817 0.0033197745 1.8662227 -0.71687454 -0.0065701124 -0.025478719 -0.5272768
-0.52774227 -1.2971544 2.5813959 1.1036769 -2.0961592 0.36559942 -1.6528158 1.884943
-2.3365912 4.762179 -0.28233552 0.07352068 -0.009969802 0.4871308 0.8499963 -0.6776241
-0.016882654 0.49170402 -0.10727838 0.40826896 0.0032987436 0.2033075 0.74000394 -0.5779705
-0.021959364 1.2757174 2.3109775 -2.8841152 3.2482746 0.29225513 -2.032647 -0.05694347
1.9599423 -0.08974526 -1.8704114 -2.1088736 1.2716631 0.28394863 0.006408456 0.56111515
0.5695669 0.00017579552 0.012684159 0.27519354 0.19460051 0.4135929 0.0003281955 0.29291165
1.1417153 -0.20000935 -0.012548021 0.79608214 -0.5946542 1.0226681 0.43038318 -0.5538106
-1.4442545 0.8643275 1.301711 1.4500017 -1.0502684 -0.26239282 1.8089552 0.037039757
0.0057927133 1.0403565 -0.19758277 0.62697136 -0.020006998 0.3806885 0.8822028 0.08059111
-0.010760105 0.8997409 0.53447634 0.54048324 -0.0047951313 1.0485736 1.3074081 0.20050763
3.0358732 2.5111313 -1.0136657 1.2679384 -1.9388974 -2.655874 0.42252904 0.5248048
-0.038381673 -0.009834681 0.025343627 0.23576438 0.55176765 0.006204942 0.02795546 1.0185071
-0.28116414 0.7268109 0.0015216363 0.12976071 1.707435 -0.6947263 -0.021210544 0.6548195
-0.96654886 1.2497066 2.721561 1.9510428 -0.95964825 -1.2789718 -1.4742999 0.56324196
1.1176915 1.3099337 0.9422806 -0.33929244 0.045098953 1.1951022 -0.5269405 0.6669094
0.0076561263 0.21088643 0.7345014 0.15783064 0.021466704 0.3514109 -0.14302523 0.7340578
-0.026672412 0.4404708 0.074711815 -0.054297727 -0.4831043 -1.8967078 5.036944 3.7967138
-2.8063676 0.47163877 -2.4950309 -1.9021522 0.031775795 0.27758417 -0.026020244 0.51205623
1.1743137 -0.48249942 0.0031439527 1.3260181 -0.9563234 0.22523582 0.026731927 -0.8679894
1.7139248 -1.229183 0.011390352 -0.4461737 -3.771935 -2.1873307 1.6830354 1.021923
-0.8947661 0.4436753 0.51381934 0.74948215 -0.5269244 0.5805025 0.77478176 0.011616314
0.005128671 0.5358377 0.45551682 0.4291417 0.017892579 0.8599991 1.2695651 -0.112526074
0.012263687 1.469262 -0.21655555 0.47104722 0.011782209 0.017130444 0.61984295 0.4706949
-0.8411662 -2.0321243 6.1216464 -0.51401675 -0.5168768 -1.1621599 0.27842876 -0.9992961
0.31897536 0.5055834 0.003825597 -0.021202864 0.61622983 -0.46990478 0.004739359 0.44037306
0.62619746 -0.08346927 -0.0018983411 -0.06470377 -0.24811135 -0.45303625 -0.0053619375 -0.37781265
3.101941 0.5347006 -2.7765722 -3.1604967 1.0202248 -0.79454845 1.3244263 0.208069
-0.40610665 -1.2833446 -0.2002716 -0.09309709 -0.02144424 -0.24230252 -0.46568516 0.14161198
-0.017131768 -0.38764328 -0.82352465 0.3704933 -0.007200683 -0.15855536 1.0479884 -0.33172145
-0.016724534 0.43592227 0.113535374 0.4610186 -2.4389741 -2.2474875 1.765356 3.9947493
00000000: 1359 393f f5c8 eabd c58b d33c c362 1f3f
00000010: 605f 6fbf c86e 433e ff68 2e3c 25ce 28be
00000020: 0d4d ae3f d88b 8abe 9390 593b 63e0 ee3f
00000030: 1785 37bf 194a d7bb bfb8 d0bc 9dfb 06bf
00000040: 1e1a 07bf 2809 a6bf 9735 2540 4945 8d3f
00000050: 7927 06c0 d92f bb3e 788f d3bf d045 f13f
00000060: b68a 15c0 c563 9840 488e 90be 0392 963d
00000070: 6158 23bc 3569 f93e 5c99 593f c678 2dbf
00000080: 7e4d 8abc a1c0 fb3e c4b4 dbbd a108 d13e
00000090: bc2f 583b d72f 503e e670 3d3f e0f5 13bf
000000a0: 20e4 b3bc b54a a33f 0ee7 1340 5895 38c0
000000b0: bbe3 4f40 77a2 953e e316 02c0 8e3d 69bd
000000c0: 64df fa3f 5dcc b7bd a469 efbf c9f7 06c0
000000d0: dbc5 a23f b761 913e 06fe d13b 3ea5 0f3f
000000e0: 23cf 113f c055 3839 38d1 4f3c 2be6 8c3e
000000f0: 5b45 473e 73c2 d33e a811 ac39 84f8 953e
00000100: ba23 923f 40cf 4cbe 3796 4dbc 0acc 4b3f
00000110: 423b 18bf cae6 823f 2f5b dc3e 88c6 0dbf
00000120: 55dd b8bf 9144 5d3f 779e a63f a899 b93f
00000130: 326f 86bf 5a58 86be d88b e73f 00b7 173d
00000140: cdd0 bd3b 672a 853f 2353 4abe 3281 203f
00000150: b7e5 a3bc 9ae9 c23e 0bd8 613f f40c a53d
00000160: 274b 30bc 6b55 663f 71d3 083f 1c5d 0a3f
00000170: 7a20 9dbb a937 863f 2659 a73f df51 4d3e
00000180: bf4b 4240 60b6 2040 ccbf 81bf ce4b a23f
00000190: ca2d f8bf d7f9 29c0 ba55 d83e 9b59 063f
000001a0: 1a36 1dbd a421 21bc 709d cf3c 386c 713e
000001b0: a540 0d3f d352 cb3b d902 e53c 715e 823f
000001c0: bff4 8fbe 4710 3a3f a471 c73a fedf 043e
000001d0: 3b8d da3f 95d9 31bf bcc1 adbc 40a2 273f
000001e0: bf6f 77bf 63f6 9f3f 0e2e 2e40 c5bb f93f
000001f0: 82ab 75bf 59b5 a3bf dcb5 bcbf a030 103f
00000200: 8410 8f3f e8ab a73f 4d39 713f bdb7 adbe
00000210: aeb9 383d 1cf9 983f 93e5 06bf 93ba 2a3f
00000220: 3ee0 fa3b 9df2 573e 4908 3c3f 5b9e 213e
00000230: f1da af3c 21ec b33e 3575 12be 36eb 3b3f
00000240: 1a80 dabc 6485 e13e 8202 993d 4b67 5ebd
00000250: 7259 f7be 52c7 f2bf a52e a140 5cfd 7240
00000260: 879b 33c0 a37a f13e 96ae 1fc0 b979 f3bf
00000270: 5627 023d 831f 8e3e 6828 d5bc 1e16 033f
00000280: e94f 963f 2a0a f7be c60a 4e3b f6ba a93f
00000290: 9cd1 74bf 38a4 663e eafc da3c 8e34 5ebf
000002a0: e361 db3f de55 9dbf 999e 3a3c e170 e4be
000002b0: 6267 71c0 3afd 0bc0 b46d d73f 5fce 823f
000002c0: 640f 65bf 6929 e33e aa89 033f 10de 3f3f
000002d0: 84e4 06bf d09b 143f 1958 463f 5a52 3e3c
000002e0: 690e a83b a92c 093f 8039 e93e 76b8 db3e
000002f0: 7593 923c e728 5c3f 1c81 a23f 1274 e6bd
00000300: a2ed 483c c710 bc3f bdc0 5dbe 1a2d f13e
00000310: 2b0a 413c 2555 8c3c 07ae 1e3f ecfe f03e
00000320: ab56 57bf 530e 02c0 87e4 c340 9a96 03bf
00000330: 0a52 04bf a8c1 94bf 378e 8e3e dfd1 7fbf
00000340: bd50 a33e ea6d 013f deb6 7a3b a1b1 adbc
00000350: 3dc1 1d3f 5c97 f0be a04c 9b3b 9478 e13e
00000360: 7a4e 203f f0f1 aabd c2d1 f8ba 6983 84bd
00000370: e710 7ebe 5ef4 e7be 31b3 afbb a970 c1be
00000380: 3486 4640 23e2 083f 5cb3 31c0 9445 4ac0
00000390: ba96 823f 8767 4bbf cd86 a93f 0a10 553e
000003a0: 36ed cfbe a344 a4bf 0014 4dbe b0a9 bebd
000003b0: d5ab afbc 271e 78be 496e eebe bb02 113e
000003c0: ec57 8cbc 2e79 c6be 83d2 52bf 4cb1 bd3e
000003d0: b5f3 ebbb 565c 22be 7c24 863f 65d7 a9be
000003e0: e401 89bc 3431 df3e 3c85 e83d a10a ec3e
000003f0: 2718 1cc0 d6d6 0fc0 2ff7 e13f f9a9 7f40

mlp.0.bias f4 [10]
-0.62254804 -1.4374173 0.118917234 0.095531456 0.08948144 -0.15656322 -0.49596754 -0.9145436
-0.96996194 -0.08186506
00000000: 4f5f 1fbf 4afd b7bf e18a f33d ffa5 c33d
00000010: 0c42 b73d 1c52 20be 75ef fdbe 881f 6abf
00000020: 6d4f 78bf dea8 a7bd

mlp.2.weight f4 [10, 10]
0.85392797 1.1087723 -0.35166976 -0.24974146 -1.9715352 0.8098326 -1.5234379 3.9129872
1.3147454 0.002629612 1.3942374 -2.2651873 0.023025218 1.3412971 -0.1784785 -0.49656525
0.23533781 1.075598 -1.4997737 -0.32820016 -1.8163896 -0.96180934 -0.54938585 -1.8180616
0.5248756 0.22778592 -0.64883214 0.29053795 -0.52001125 -1.2613187 -0.7382983 -1.0118945
0.28012714 -3.2632954 0.8959601 0.20796908 -1.392092 0.36619952 -0.94489574 -1.9421823
-0.39319488 0.54720044 0.8155019 -2.588592 0.565488 0.6692269 -1.2196202 0.7269176
-1.077964 -1.5748422 -0.62648934 0.9779232 -0.46084085 0.1713861 -2.0717673 1.28413
-2.759538 2.7734034 1.4691452 0.4812033 0.34951124 1.5494564 1.1908439 -0.5808855
-0.49927667 2.0946045 0.48760483 -1.0388523 0.8907576 -1.3595805 -0.30953252 -0.33702734
0.15027426 -0.9358972 -0.1431688 1.0532442 0.08481313 -0.9181983 0.8962647 -0.54684496
0.26222703 -0.9552603 -0.5026668 -1.7493949 -0.3968005 -0.639253 0.39959872 -0.8233333
0.785667 -0.4629505 -0.21003664 0.6272939 0.44096768 -2.9348266 0.7962196 0.6118439
-1.1958164 0.7355398 -1.1636635 -2.5413134
00000000: 069b 5a3f 40ec 8d3f 0f0e b4be 3abc 7fbe
00000010: 445b fcbf 3051 4f3f 0300 c3bf 626e 7a40
00000020: 9449 a83f 9255 2c3b 5f76 b23f d4f8 10c0
00000030: 629f bc3c a0af ab3f 11c3 36be cd3d febe
00000040: 65fc 703e 32ad 893f 96f8 bfbf da09 a8be
00000050: 747f e8bf 2339 76bf 8da4 0cbf 3eb6 e8bf
00000060: 3f5e 063f b640 693e dd19 26bf 64c1 943e
00000070: 751f 05bf e472 a1bf 1e01 3dbf c285 81bf
00000080: d36c 8f3e d5d9 50c0 a45d 653f d9f5 543e
00000090: 1230 b2bf 817e bb3e b0e4 71bf 6e99 f8bf
000000a0: d750 c9be 5415 0c3f bcc4 503f 7eab 25c0
000000b0: d2c3 103f 7452 2b3f 841c 9cbf 4617 3a3f
000000c0: b9fa 89bf 6e94 c9bf 9b61 20bf 2d59 7a3f
000000d0: 55f3 ebbe d67f 2f3e d697 04c0 5f5e a43f
000000e0: 459c 30c0 717f 3140 f30c bc3f 4760 f63e
000000f0: 23f3 b23e 9654 c63f 936d 983f eab4 14bf
00000100: 31a1 ffbe 000e 0640 57a7 f93e 1df9 84bf
00000110: b108 643f bc06 aebf 0c7b 9ebe d98e acbe
00000120: 7fe1 193e f596 6fbf d89a 12be b5d0 863f
00000130: 82b2 ad3d 0b0f 6bbf 9a71 653f 08fe 0bbf
00000140: 9f42 863e f08b 74bf c5ae 00bf 2cec dfbf
00000150: 6f29 cbbe 16a6 23bf 3498 cc3e f9c5 52bf
00000160: 7921 493f d907 edbe d813 57be 5596 203f
00000170: 84c6 e13e 33d4 3bc0 0cd5 4b3f cda1 1c3f
00000180: 8310 99bf 564c 3c3f edf2 94bf e1a4 22c0

mlp.2.bias f4 [10]
-0.6729638 0.12350146 -0.5555865 -0.17895992 -0.52142537 0.35463628 -1.1043606 -0.94093823
-0.46902293 -0.57360333
00000000: 5b47 2cbf 55ee fc3d eb3a 0ebf 4541 37be
00000010: 227c 05bf e392 b53e b05b 8dbf 54e1 70bf
00000020: c623 f0be abd7 12bf

mlp.4.weight f4 [1, 10]
1.2097642 -1.0546578 -1.6476313 -1.636246 -1.8491971 1.1797482 -1.0125566 -0.809683
-1.927369 -1.2126918
00000000: 8ed9 9a3f 07ff 86bf 95e5 d2bf 8270 d1bf
00000010: 7eb2 ecbf fd01 973f 749b 81bf 6347 4fbf
00000020: 07b4 f6bf 7c39 9bbf
